MTCNN2Detector/parameter/pnet.pkl (torch_old, 27977 bytes, 9 tensors)

conv1.0.weight f4 [10, 3, 3, 3]
000000 6f 32 02 3e 11 61 cd bd d7 83 fb be 50 7f 15 3e
       0.12714551 -0.100282796 -0.49124023 0.14599347
000010 f8 23 de 3b 01 81 01 bf bd 2f 57 3e a7 eb f2 3c
       0.00677919 -0.5058747 0.21014304 0.029653383
000020 61 5e c7 be bb b5 d4 3d 8b 10 0c 3e 36 6c 1e 3e
       -0.38939193 0.10386225 0.13678186 0.15470967
000030 12 fe cc 3e 91 91 61 3e 66 02 aa bc e7 70 e1 3d
       0.4003759 0.22028185 -0.020753097 0.110078625
000040 69 11 55 3e a6 93 f2 3c 9b e8 32 3d 6d f6 56 bc
       0.20807423 0.02961142 0.04367886 -0.013120276
000050 c3 29 21 be 3f b0 4c be 0a e7 c2 3d 51 ef 2b be
       -0.15738587 -0.19989108 0.095167235 -0.1679051
000060 ee 1a 30 bd 80 56 d5 3d 6d bf 2d 3d 4a 4c 5c 3d
       -0.042994432 0.10416889 0.042418886 0.053783692
000070 ec 6b 3c 3c 75 de f4 3c a1 af 0f 3d af 17 80 bc
       0.01150034 0.029891232 0.035079602 -0.015636293
000080 fd ea 27 3c f4 13 3c 3e fb fc bd be e6 8d 4d 3e
       0.010248897 0.18366987 -0.3710707 0.20073661
000090 20 f1 ea ba ed ad 17 3d 60 c3 40 bb d4 d0 fc bd
       -0.0017924644 0.037031103 -0.0029413328 -0.12344518
0000a0 c6 09 a4 be 96 29 a7 3e d6 9a b7 3d a8 3b 8c be
       -0.32038707 0.32648915 0.089650795 -0.27389264
0000b0 80 91 9d 3e 15 b2 60 bd ce 51 c0 bc ad c7 ed bc
       0.3077507 -0.054857332 -0.023476508 -0.029025877
0000c0 3f 4a 5e 3d 8c da 96 3d 5a 1c 47 3c a2 dd 1d 3c
       0.054270025 0.07365903 0.012152756 0.009635361
0000d0 d3 9c aa be 0b 37 96 3e 82 44 41 3d 7f 52 40 3e
       -0.33322772 0.2933887 0.047184475 0.1878147
0000e0 2e fb f4 3d 9f a4 88 bd 86 8f 95 bd bc 23 de 3d
       0.11961971 -0.06672024 -0.073027655 0.108466595
0000f0 81 28 f9 bc b1 32 43 3c 38 cd a4 3d 0d 81 45 3e
       -0.030414822 0.011913941 0.08046955 0.1928751
000100 74 0f 48 bd 9b b6 a1 3d 10 43 ab 3d 0b 92 84 3e
       -0.048842862 0.07896157 0.083624005 0.25892672
000110 fe 6e b1 3d f7 fb 60 3e 76 4f d5 3d 13 32 58 3e
       0.08663748 0.21971117 0.104155466 0.21112852
000120 aa 1a 38 be d0 b9 63 3c 23 a5 24 bd 91 e5 e2 3d
       -0.17978922 0.013899282 -0.04019655 0.110789426
000130 78 36 ea bc 62 19 7f bd 13 24 aa 3c 44 0b 1a 3d
       -0.028590426 -0.062280066 0.020769155 0.0376084
000140 9b 37 83 bd 2b 92 42 3d cf 99 0f 3e 29 ab 12 3e
       -0.0640709 0.047502678 0.14023517 0.14323105
000150 67 17 c0 3c 64 97 9b 3b e5 51 a2 3e 22 46 89 bd
       0.02344866 0.004748272 0.31703106 -0.0670283
000160 24 b2 13 bd 71 d5 72 be ea 40 b0 be 3e 85 99 be
       -0.03605856 -0.23714234 -0.34424525 -0.29984468
000170 b7 65 dd bd 27 b2 32 be 35 1f 36 be 42 7d b6 be
       -0.10810416 -0.17450772 -0.17785342 -0.3564244
000180 5d 29 ef bd b8 31 b8 bd a3 88 27 be d3 dd 5f bd
       -0.11677811 -0.08993858 -0.16360717 -0.054654907
000190 57 e2 1e 3e b4 26 ca 3d 5b 78 38 3d 99 eb e5 bd
       0.1551603 0.09870663 0.045036655 -0.11226577
0001a0 20 c2 38 3e 3c 14 c5 3e 26 0f 9f 3d a6 eb a7 bd
       0.18042803 0.38492 0.07766561 -0.08199243
0001b0 76 60 08 3e c3 0e b4 bd b6 ea 4c 3e 15 56 27 3e
       0.13318047 -0.08791878 0.2001141 0.16341431
0001c0 21 44 9e 3c e6 e6 43 be 72 18 62 3d 7e d3 e1 3d
       0.019319596 -0.1913105 0.055199094 0.11026667
0001d0 ef 52 8b 3e 2d d4 04 3e d9 86 42 be 24 0c 59 bd
       0.2721171 0.12971564 -0.18996753 -0.052990094
0001e0 ba 05 9a 3c 8c f6 84 3d 02 3d cd be 22 30 5d 3e
       0.018801559 0.064923376 -0.40085608 0.21600392
0001f0 02 30 98 3e 2e 28 23 3c f7 fe 52 be ef 8e 74 3e
       0.29724127 0.00995831 -0.20605074 0.2388265
000200 9f a8 55 be dc e6 5d be 06 53 ff bb f6 24 21 be
       -0.20865105 -0.21670097 -0.0077918796 -0.15736756
000210 23 04 c2 bd c5 37 94 3d 5c f5 bc 39 ed a6 f9 bc
       -0.09473445 0.072372 0.0003604096 -0.030475104
000220 b5 a5 6a bd 61 ff 1a 3e 36 f4 5a be 0e 7d 9d 3c
       -0.057286937 0.15136482 -0.21382222 0.01922467
000230 70 39 22 3d 70 1b 8c be 6c 19 d7 3d 95 32 76 3d
       0.039605558 -0.27364683 0.10502896 0.060106833
000240 af 10 e2 3d da 83 2e bc 96 4b 94 bd b4 53 42 be
       0.110383384 -0.010651553 -0.072409794 -0.18977243
000250 2e ef 2d be 09 e4 5a 3b b7 49 97 bd 8d 3d a8 3c
       -0.16985771 0.003340008 -0.07387107 0.020537162
000260 b1 84 1f 3e 68 0e 84 be 5b 04 59 be e4 1f 01 be
       0.15577962 -0.2579224 -0.21193068 -0.12609822
000270 69 b5 aa 3d d7 b0 a6 bd 0f d1 11 3e 31 34 52 bd
       0.083353825 -0.08139198 0.14239906 -0.051319305
000280 7e 64 7b 3b 6d c2 d4 bd f7 b9 3f be 66 42 95 3e
       0.0038359459 -0.10388646 -0.18723284 0.2915222
000290 55 c5 33 3e 52 8e b0 be 03 1d cb 3d 6a a7 42 3e
       0.17555745 -0.34483582 0.09917643 0.19009176
0002a0 03 98 8f be 31 a7 30 be 37 00 0c 3e 21 2d 95 3d
       -0.28045663 -0.17251278 0.13671957 0.07283998
0002b0 2b 31 89 3d fc b8 0b 3e 9d 1c 33 bb 9e b8 78 bd
       0.06698831 0.13644785 -0.0027330287 -0.06072294
0002c0 27 e2 b5 3d 3c db d6 bd 88 02 cd bd ba 62 a5 bd
       0.08881026 -0.104910344 -0.100102484 -0.08075471
0002d0 47 d6 d7 3c da da 94 3d ef 19 21 3d c1 d2 33 3d
       0.026347293 0.07268305 0.039331373 0.043902162
0002e0 80 99 34 3d 30 e6 af 3d 63 32 fe bd 54 12 6e be
       0.0440917 0.08588827 -0.12411954 -0.23249179
0002f0 f8 28 93 bd 56 66 cf 3d 01 11 21 3e 96 f2 79 3e
       -0.071855485 0.10126941 0.15729143 0.24408945
000300 6a d7 ec 3c 91 45 16 3e ac fe aa 3e bd 49 75 3e
       0.028911311 0.14674975 0.33397424 0.2395391
000310 88 d8 c0 3e e2 1d ae 3e 98 22 59 3d 65 80 93 be
       0.376652 0.34007174 0.053011507 -0.28808895
000320 e1 ce 73 be 12 f3 ab be 81 46 af be ce 3e 49 be
       -0.23809387 -0.33583885 -0.34233478 -0.19652864
000330 fb 1b 20 be 60 9e 49 be 9f c7 4b bd 23 38 13 bd
       -0.15635674 -0.19689322 -0.04975092 -0.035942208
000340 97 d9 9f 3d 7e d4 d1 3c 76 58 f0 bd 61 49 bc 3c
       0.07805174 0.02561402 -0.117356226 0.022984209
000350 7b 33 4e bd 59 03 03 3d 28 ae 34 3d 6c 43 2e be
       -0.050342064 0.031985614 0.0441114 -0.17017907
000360 54 42 26 3d 2f 44 d4 bd 8d 4e eb 3d 93 4f 31 bd
       0.0405906 -0.103645675 0.11489592 -0.04328878
000370 76 e4 e6 bc d5 c4 fe bc fe 4d 8d be 70 37 bc be
       -0.02818511 -0.031099716 -0.27598566 -0.36761045
000380 6f 43 bd be fb 87 e6 3c 89 da 34 3e 81 10 98 3d
       -0.3696551 0.028141012 0.1766149 0.07425023
000390 b6 27 b0 3e 4e 7c d6 3e 62 b8 9a 3b 27 cc 1d 3e
       0.34405297 0.41891712 0.004721687 0.15409909
0003a0 23 2a e6 bb d7 ec f2 3d 60 d3 9c be 21 e9 32 3d
       -0.007024066 0.1186158 -0.30630016 0.04367936
0003b0 05 9b fe bc 1d 4f 7d 3e 71 32 46 3e c9 66 2c be
       -0.031079778 0.2473721 0.1935518 -0.16836084
0003c0 3f 8c 0e be be 75 12 bd b3 7e bb 3b 58 5e 19 be
       -0.13920687 -0.03575682 0.005721891 -0.14977396
0003d0 80 51 94 be c3 df 67 be e9 0f e5 3d d8 90 dc 3d
       -0.2896843 -0.22643952 0.11184675 0.10769814
0003e0 ef 31 24 bc 3f 84 8a 3e fe 70 ba 3e ff d6 3f 3e
       -0.010021671 0.2705402 0.3641433 0.18734358
0003f0 f8 57 1f be 83 04 99 be 2f b6 fe bd b8 27 12 be
       -0.15560901 -0.29886255 -0.124370925 -0.14272964

conv1.0.bias f4 [10]
000000 57 cf 2b 3e e6 4b 71 bc 1d 2e b8 3e 4d 3e d1 3c
       0.16778313 -0.014727568 0.35972682 0.025542403
000010 d7 09 e9 3d 20 28 4c 3e 19 73 22 3c 81 75 2c bd
       0.1137883 0.19937181 0.009915137 -0.042104248
000020 93 b4 72 3e a2 2c c1 bb
       0.23701696 -0.005895213

conv1.3.weight f4 [16, 10, 3, 3]
000000 f3 21 d0 3c f5 9f ec bc a0 d3 a9 3d 85 0c 55 3d
       0.025406813 -0.028884867 0.082923174 0.052013893
000010 90 b2 8e 3c 81 17 b3 bc 27 e4 63 bb 25 74 bb bd
       0.01741913 -0.021861793 -0.003477344 -0.09153012
000020 9c bc 86 bd 02 f0 21 3d 8a f9 ec bd 26 58 d5 ba
       -0.06578943 0.03953553 -0.11571033 -0.0016276881
000030 3f 80 7e bd 6e a1 5d bd 42 fa da 3c 00 db 21 bc
       -0.062134024 -0.05410903 0.02673066 -0.009878874
000040 e2 71 f4 3c f3 cf f1 bd 7e 52 1f 3d 71 07 b5 3d
       0.02983946 -0.11807241 0.03889703 0.0883931
000050 12 46 5c bd 7a d6 16 be 50 4e c6 3d 4a fa bb 3d
       -0.05377776 -0.14730254 0.09682906 0.09178598
000060 89 cf 47 3d b8 8e 0d 3e b0 16 ae 3d 4d 17 6e be
       0.048781905 0.13823974 0.08500421 -0.23251076
000070 c6 d0 85 be af 3a 1b 3d 42 a8 58 3c 04 e1 33 be
       -0.26135844 0.037897762 0.01322371 -0.17566305
000080 3b 9f 1a bd dc 78 3f be ac 80 24 be 74 45 0b be
       -0.03774951 -0.18698448 -0.1606471 -0.13600713
000090 ef f8 86 bd bf 71 80 3d e8 7f f9 3d 51 b0 db 3d
       -0.06590449 0.06271695 0.12182599 0.10726989
0000a0 39 03 05 3d ad e0 b2 3d 88 f3 16 3e fc e3 dd 3d
       0.032473776 0.0873426 0.14741337 0.108345
0000b0 de 13 4f 3e 0a b8 78 3e 26 72 ee 3d 30 b9 ae 3d
       0.20222422 0.24288955 0.11642866 0.085314155
0000c0 57 7d 57 3e d8 91 c9 3d 34 63 e0 3d 08 69 d4 bb
       0.21043907 0.098422706 0.109564215 -0.0064822473
0000d0 4c 8f 7f 3d 91 2d c3 ba 9e bb 2c bd ff 73 0a bd
       0.062392518 -0.0014890899 -0.042171113 -0.03380203
0000e0 a4 0d fa bd 05 d7 08 be d4 51 c1 3d d1 13 a4 bc
       -0.12209633 -0.13363273 0.094394356 -0.02002898
0000f0 83 ec 4a be ea c3 ed bb 10 63 f1 3d b4 64 9c bc
       -0.19816785 -0.007256021 0.11786473 -0.019090988
000100 6a dc cc bd 39 dc 53 3d 0e 30 3b be ff 0c 5d be
       -0.10002978 0.051723693 -0.1828005 -0.21586989
000110 4a 26 62 bd 71 4a d6 3c a1 b6 e7 bd 76 48 0c be
       -0.055212297 0.026158543 -0.113141306 -0.13699517
000120 99 3f a7 bc 04 9b dd 3c 89 98 c2 3c ad b7 02 3e
       -0.020416068 0.027051456 0.023754375 0.12765379
000130 03 67 f5 3b f5 c9 b6 3d 42 ad 56 3d 5b 22 4a 3d
       0.0074890866 0.08925239 0.052411325 0.04934917
000140 33 03 e0 bd 3c 38 02 be 04 8b e1 3c 45 bc bf bc
       -0.1093811 -0.12716764 0.027532108 -0.023405204
000150 9a d2 52 be dd db 3c 3d ca a6 a5 3d 36 7e 47 3d
       -0.2058815 0.046108115 0.08088453 0.04870435
000160 fa db 2e 3d f8 95 9d 3c d4 dd 6f bd 61 95 a3 bb
       0.042690255 0.01923655 -0.05856116 -0.0049921726
000170 b7 64 0d 3d 20 d3 0d 3e 7c 5f f6 3d 15 16 80 be
       0.034519877 0.13850069 0.12029931 -0.25016847
000180 c1 85 22 bb 46 94 3c 3d 01 3f 8c bd 5a dd cd 3c
       -0.0024798962 0.046039842 -0.068479545 0.025129963
000190 be ea fd bc 4b dc 11 bc 3c 85 bc bd d4 30 21 3d
       -0.030995723 -0.00890262 -0.092051 0.039353207
0001a0 65 ed 33 be 39 13 6e bd 14 9f cf 3b 89 d7 3e be
       -0.17571028 -0.0581238 0.0063361023 -0.18636908
0001b0 15 54 0b 3e ca 91 9a bc 8d db 10 bb fe f1 e1 39
       0.13606293 -0.018868346 -0.0022103519 0.00043095642
0001c0 a3 e1 ab bd b7 e6 ec 3d 19 1a b6 bd 2b cb bd 3d
       -0.08392646 0.11567443 -0.088916965 0.09267267
0001d0 9a c8 5d 3e a8 26 13 bb 4f 93 3e bd 43 22 7a bd
       0.21658555 -0.002245346 -0.046527203 -0.06106783
0001e0 1e cd 38 3d eb 49 cf bd a1 41 42 be 87 84 11 bd
       0.04511749 -0.101215206 -0.18970348 -0.03552678
0001f0 92 3e a1 bd 0e 5f 2c 3e e4 1a 30 be 38 bf 16 bd
       -0.078732625 0.16833135 -0.17197758 -0.036803454
000200 bf d6 05 bd 23 54 8c bd ae d3 a7 bc 48 33 74 3d
       -0.0326755 -0.06851985 -0.020486679 0.059619218
000210 92 a9 d8 3c 3d 1c 59 bc ca e2 68 3d e9 18 26 3e
       0.026448045 -0.013251361 0.056856908 0.1622044
000220 0c a9 58 3d 6c a6 bc 3d cc 6d e7 3c 0b ef cb 3d
       0.05289559 0.0921143 0.028250597 0.09957703
000230 78 4e 06 3e af 21 c9 3b 13 63 5f 3d 8d cc aa bd
       0.13115871 0.0061380486 0.054537844 -0.08339796
000240 1e f0 cf 3c fe 9a 04 be 50 64 78 bd 2c bd d9 bc
       0.025383051 -0.1294975 -0.06064254 -0.026579462
000250 ec 2d 56 bd e6 9c a4 be 9c a1 a1 3c 4c 50 ad bc
       -0.05228989 -0.32150954 0.019730382 -0.021156453
000260 e1 09 53 3e f4 0c aa bd e2 a0 aa bd 77 2e 42 3b
       0.20609237 -0.08303252 -0.08331467 0.0029629746
000270 07 e5 d4 bd 87 54 8e 3d 8c fe 57 3d b3 77 18 3e
       -0.10395246 0.06949716 0.05273299 0.14889412
000280 b7 79 0c be c8 ae 1e be d1 aa 76 bd a6 ae 28 3e
       -0.13718306 -0.15496361 -0.060221497 0.16472873
000290 71 19 0e bd ad 4a 7d bd 44 48 9d be 12 4f 61 bf
       -0.03469223 -0.061838794 -0.30719197 -0.88011277
0002a0 cd 41 5c 3c 9d 58 4a 3d a6 86 1e 3e da ee 02 bd
       0.0134434225 0.049400914 0.15481052 -0.031966068
0002b0 c6 57 21 3d 72 84 1b 3e 42 ae 3e bd c8 1c 76 3d
       0.039390348 0.15187243 -0.046552904 0.06008604
0002c0 f0 c8 2b bd 25 ba b3 bd b0 81 a9 3b 18 ab b7 3c
       -0.041939676 -0.087757386 0.0051729307 0.022420451
0002d0 11 8e 35 3e 14 4f a9 3d 50 64 4d be 91 17 0f 3c
       0.17729975 0.08267036 -0.20057797 0.008733646
0002e0 76 57 e8 3d 8e bf 88 be 7d ce 8f 3d 98 a6 1e 3e
       0.11344807 -0.26708645 0.070218064 0.15493238
0002f0 82 31 08 be 7f e5 2b 3e d7 bc 7f bb 68 46 ca 3d
       -0.13300136 0.16786765 -0.003902247 0.0987671
000300 71 f4 c9 3c 21 b1 69 bd 48 52 b4 3d ac e1 05 be
       0.024652692 -0.05705369 0.088047564 -0.13074368
000310 57 5c a3 3d 97 8c cf bd b3 ce 83 3d 75 d1 0c 3d
       0.07976597 -0.10134237 0.06435909 0.03437944
000320 94 2c c7 bd 80 9c e8 bd ea 2c 6d 3d e5 c1 8b 3d
       -0.097252995 -0.11357975 0.05790416 0.06824092
000330 a5 7a 8a 3d 37 dc 44 3e df 83 6d 3e 5c ea 6a bc
       0.06761674 0.1922463 0.23194836 -0.014338102
000340 60 d6 36 3c ae 3f 21 ba 8a d8 66 bd aa 97 dd 3d
       0.011159509 -0.00061511516 -0.05635885 0.10819943
000350 09 34 c5 bd 43 3b 0f 3d af 3c 14 3e fa 96 7e 3d
       -0.096290655 0.034968626 0.14476274 0.0621557
000360 7d 25 22 be cb d6 4a bd 68 b8 b5 3d 9a 68 b1 bd
       -0.15834613 -0.04952125 0.08873063 -0.08662529
000370 9e f5 a6 bd 10 e5 2f bd 34 eb 29 bc 0f 81 79 bd
       -0.081523165 -0.04294306 -0.010371018 -0.060914095
000380 01 15 15 3d 67 82 95 bd 9a 1e 88 3e 3d 79 cc 3c
       0.036396984 -0.07300263 0.26585847 0.024960155
000390 51 87 b9 3c 3a 2e ef 3d 17 17 33 3d 42 11 17 3b
       0.022647532 0.11678739 0.043723192 0.0023051058
0003a0 29 a5 9c 3d 43 d4 40 bc 28 46 9a bd c0 26 c0 3d
       0.07648689 -0.011769357 -0.075329125 0.09382391
0003b0 7e 4a 87 3d 6f a8 14 be 29 11 2c bd d1 18 22 3e
       0.06606005 -0.14517377 -0.042008553 0.15829779
0003c0 3e 46 c1 be 19 11 bd 3d 1a bc 41 3e ae 01 a5 bd
       -0.37748903 0.09231777 0.18919411 -0.08056961
0003d0 41 36 18 3e 7b f0 21 bd c2 97 cc 3c d4 ca 96 bd
       0.14864446 -0.03953598 0.024974708 -0.07362905
0003e0 ec 65 17 be 0a 4e 16 3d de 37 55 bd 65 95 e4 bd
       -0.14784974 0.036695518 -0.052055232 -0.11161307
0003f0 08 d4 5f bd 8b 8b 66 3d bc 84 4b bd 1f 83 b2 3d
       -0.054645568 0.056285422 -0.049687132 0.087164156

conv1.3.bias f4 [16]
000000 ca 61 a3 bd 0a 7c 81 3d 3a 62 38 be 8a 30 9d 3d
       -0.07977636 0.06322487 -0.1800622 0.07675274
000010 07 03 0e 3e b4 2f 66 bd 19 bf 30 3e db 32 8d 3d
       0.13868342 -0.056197837 0.17260398 0.068944655
000020 d8 02 bb 3d 91 23 91 3e 78 b0 27 3d fe e4 16 3d
       0.09131402 0.28347448 0.040939778 0.036839478
000030 f8 44 a2 3d af f2 8b bc 99 87 d0 3c 14 1f a7 3b
       0.07923311 -0.017083494 0.025455283 0.0051001403

conv1.5.weight f4 [32, 16, 3, 3]
000000 6c 89 fe 3d 49 a3 03 bd 71 01 9c bd fd fb 4e bd
       0.12428555 -0.032138143 -0.076174624 -0.050533284
000010 c4 94 5b bd c7 9b 08 3d 1f ec c5 bd ba a5 3d be
       -0.05360867 0.033351686 -0.09664177 -0.18520251
000020 40 ca a8 bd b3 dc 19 be a0 e9 d8 bd 29 fb 8b be
       -0.08241701 -0.15025596 -0.105914354 -0.27340057
000030 76 f7 bb be 33 c2 14 be 77 cc f9 be 0a 80 b7 be
       -0.36712235 -0.14527206 -0.48788807 -0.35839874
000040 37 36 02 be 88 4a 9c be 8b 75 39 3e d2 4e 01 3e
       -0.12715994 -0.30525613 0.18111245 0.12627724
000050 4b 85 02 3e 74 35 1d 3e 40 6f 33 3e 15 bd 84 3d
       0.1274616 0.15352422 0.17522907 0.06481377
000060 29 c8 5b 3e ac ad 66 3e 51 c6 6f 3e 7c e6 a1 bd
       0.21463074 0.22527188 0.23415495 -0.079052895
000070 a1 85 55 bd 8c 1f 87 be ef 0b 5d be 68 77 e3 bd
       -0.05212939 -0.26391256 -0.21586584 -0.11106759
000080 9c 01 aa be c2 3b c5 bd f7 24 a5 be 16 ab c7 be
       -0.33204353 -0.096305385 -0.32254764 -0.38997716
000090 9d 2a e3 bd c5 38 83 3e dd 76 69 3e 31 85 cd bd
       -0.11092112 0.2562925 0.22799249 -0.1003517
0000a0 f3 78 1c 3e 43 70 27 3e c4 b8 4b bd a4 f3 e9 3d
       0.15280513 0.16351418 -0.049736753 0.11423424
0000b0 c7 85 2f 3d d0 2e 4b bd 4a ec e2 bd d4 02 b6 bd
       0.04285219 -0.04960519 -0.11080225 -0.08887258
0000c0 ed 18 b1 be e8 06 f3 bd b6 96 4b be 12 29 b9 bd
       -0.3458933 -0.11866552 -0.1988171 -0.09041037
0000d0 1d cb 29 be 75 ab f2 bd e7 6d 26 3e b8 a0 84 bd
       -0.16581388 -0.11849109 0.16252862 -0.06475967
0000e0 00 76 a0 bd 02 43 01 3d 7e 97 95 bd 61 e7 8f 3d
       -0.07835007 0.031558044 -0.073042855 0.07026554
0000f0 50 90 69 3e d4 03 bc 3d f9 94 c9 bd e8 d0 5f be
       0.22808957 0.09180418 -0.098428674 -0.21857035
000100 d2 8e 44 3c 29 40 9f 3d a2 7f 09 be 41 89 2a bd
       0.011996942 0.077759095 -0.13427594 -0.0416348
000110 63 08 d9 3d 07 7b 15 3d fa a2 d2 3c f9 b9 ba 3d
       0.10597303 0.03649428 0.025712479 0.09117503
000120 e9 8d b1 bd c4 e4 7b be 04 80 93 be 54 45 c9 bd
       -0.08669645 -0.24598986 -0.28808606 -0.098276764
000130 1a b5 a4 3c 29 e7 3b bd 5e 79 0d be 77 36 37 be
       0.020105887 -0.04587475 -0.13815829 -0.1789187
000140 e0 a8 43 be 67 b8 98 bd 4f c7 3b be 6a 51 e4 3d
       -0.1910739 -0.07457047 -0.18337749 0.11148341
000150 5a f5 39 be 43 9f 65 bd 15 61 4e 3d 99 67 09 be
       -0.1816 -0.056060087 0.050385553 -0.13418426
000160 a1 16 f9 bd c5 8c 08 3d 2c 74 4e be 36 dd a3 bd
       -0.12162519 0.033337373 -0.20161504 -0.08001177
000170 9a 83 8d be 69 e8 05 3d ac b7 96 3b d8 9d 42 3b
       -0.27639467 0.032692347 0.004599532 0.0029696133
000180 24 6b 1f 3e cf 31 ba bd 98 02 fc 3d ba 26 21 be
       0.15568215 -0.090915315 0.12305182 -0.1573743
000190 aa 36 04 3b 08 60 ea 3d 0f 46 7a 3d a7 17 29 be
       0.0020174184 0.11444098 0.06110197 -0.16512929
0001a0 f0 45 e4 bd a2 ec 70 bd bf 62 01 be 8f 57 1c be
       -0.11146152 -0.05881942 -0.12635325 -0.15267776
0001b0 1a cc 80 be 52 b6 75 3d 6e ad 39 3e 05 9f c1 be
       -0.25155717 0.059988327 0.18132564 -0.37816635
0001c0 c1 97 aa be 63 f3 88 be d0 67 81 be 72 0c 9f be
       -0.33318904 -0.2674819 -0.25274515 -0.31064183
0001d0 1e cc 66 be 5b 49 1b 3d d5 fa 7d 3e f2 b9 b3 bd
       -0.22538802 0.037911754 0.24802716 -0.08775701
0001e0 eb b3 ef 3b 4e 79 80 3e b4 9d af bd c3 cd 82 be
       0.007315149 0.25092548 -0.08575001 -0.2554761
0001f0 22 d1 a6 bd 26 ac 13 be 33 d5 e8 3c e8 38 1b be
       -0.08145358 -0.14421138 0.028421974 -0.15158427
000200 0c 49 57 be bf ad d3 bd 09 af cd bd 50 f1 0a be
       -0.21023959 -0.10335874 -0.10043151 -0.13568616
000210 05 2a 63 3c b6 02 ae 3d 74 1d 9d bd b7 f2 c8 3b
       0.013864999 0.08496611 -0.07671633 0.0061324495
000220 97 f6 b7 bc 78 25 b0 bd 5d 7f 5c be 35 14 38 be
       -0.02245645 -0.086008966 -0.2153296 -0.17976458
000230 1b 18 88 be 1a 5a e2 3c 22 3e 27 bd 36 cb 8b bd
       -0.2658089 0.027630854 -0.04083074 -0.06825869
000240 db 7c 64 be 44 5f 4e bd 07 14 57 bd 10 d8 a7 3d
       -0.22313254 -0.05038382 -0.052509334 0.081955075
000250 87 43 90 3d 18 93 4d bd 4f ee 37 3e ec c2 dd 3d
       0.0704413 -0.050189108 0.17962001 0.10828194
000260 58 13 87 3d a0 67 95 3e f3 5e 89 3d 65 38 01 3f
       0.065954864 0.29180622 0.06707563 0.50476676
000270 b8 30 bc 3e 6c b5 8e 3d 00 21 0f 3f 33 ca bc 3e
       0.3675592 0.06968197 0.5590973 0.36873016
000280 5c d4 35 3e 04 05 dc 3e 71 a3 9c 3c 05 4a 12 be
       0.1775679 0.42972577 0.019120904 -0.14286049
000290 f4 81 db bd 96 b3 f6 bd ff d1 04 be 70 76 cc bc
       -0.10718146 -0.12045972 -0.12970732 -0.02495882
0002a0 5f 58 20 be e9 a0 21 be 19 90 2f be a8 60 e6 3d
       -0.15658711 -0.15784039 -0.17144813 0.112489045
0002b0 db 21 ab 3d fa 9d 95 3e b6 28 ac 3e 15 59 79 3e
       0.08356067 0.2922209 0.3362481 0.24350388
0002c0 02 d6 9b 3e a1 15 58 3e d0 6d b5 3e 79 af 90 3e
       0.30436713 0.21102001 0.35435343 0.28258875
0002d0 91 4e 39 bd 65 b7 5e be 19 69 4c be 30 3c 2c 3e
       -0.045240942 -0.21749647 -0.19961967 0.16819835
0002e0 ac 22 1f be 32 83 b2 bd d5 09 c2 bb 35 e8 d8 bc
       -0.1554057 -0.0871643 -0.005921582 -0.026477912
0002f0 9c ac 1c be b6 ee 99 3c db 03 49 3d 7e cd 95 3d
       -0.1530022 0.018790584 0.049075942 0.07314585
000300 a5 41 b1 3e ce e3 65 3d 7a 78 15 3e e0 55 f5 3d
       0.34620395 0.056125455 0.1459674 0.1197927
000310 d5 69 dd 3d 6d ed 08 3d b4 c8 2a be 32 a2 07 bd
       0.108112015 0.033429552 -0.16678125 -0.033113666
000320 a1 87 07 3e b2 97 6d bd 51 e6 52 3d b9 0d a3 3d
       0.13235332 -0.058005996 0.051489178 0.07961602
000330 11 8f 5f be d4 07 93 3c 73 72 08 3e ff 53 bd 3d
       -0.21831919 0.017948069 0.13324909 0.092445366
000340 08 a5 d9 bd 88 be 9f bd 25 db 95 3d 20 1f 8d 3c
       -0.1062718 -0.07800013 0.07317189 0.017226756
000350 cd 88 e2 bd d3 ff a7 3d 97 dd 8d bd 1a 33 32 be
       -0.11061249 0.082030915 -0.069270305 -0.17402306
000360 42 c1 e3 3d 44 6a 86 3e b4 50 e8 3d dd c9 4c 3d
       0.111208454 0.2625295 0.11343518 0.0499972
000370 15 27 28 be f3 e4 dc bb 4b a3 30 3e cf 1f 7a 3e
       -0.16421159 -0.00674116 0.17249791 0.24426197
000380 d5 fa 3d 3e 67 41 5a 3e 40 b0 11 3e ab 53 0a be
       0.18552716 0.21314012 0.1422739 -0.1350848
000390 5d d4 3a 3e 2e 16 c1 3d 08 96 98 bd 7d 8a 2f 3e
       0.18245073 0.094280586 -0.07450491 0.17142673
0003a0 d8 29 27 3d 6b 13 0c be 1f 71 91 3e e7 53 92 3e
       0.04081139 -0.13679282 0.28406617 0.28579637
0003b0 6c 99 36 3e 7a 61 12 be 14 30 e5 bc a3 00 a9 bd
       0.17831963 -0.14294997 -0.027977027 -0.082520746
0003c0 c4 79 38 be e8 18 58 3c 92 93 f3 bd 30 ba e5 3d
       -0.180152 0.013189532 -0.11893381 0.11217153
0003d0 11 e6 0d 3e 5e bc a2 bd 5e 3b ba 3b ba 31 59 3e
       0.13857295 -0.079460844 0.0056833467 0.21210375
0003e0 cf 16 02 3e 54 d5 9a 3d 5a 4d 4e 3e fd cd c6 3d
       0.12704013 0.0756022 0.20146695 0.09707258
0003f0 b3 b0 b9 3e 33 c3 01 3e 20 6c 19 bd 5a 73 b9 3e
       0.36267623 0.12672119 -0.03745663 0.3622082

conv1.5.bias f4 [32]
000000 c8 9e f7 3d db 7a 2b bc e1 4a a5 bd 36 c2 4a 3d
       0.12090832 -0.010466303 -0.08070923 0.04950162
000010 09 3b 2e bc 94 24 d0 bb d0 ef 50 3d 56 0d eb 3d
       -0.010634192 -0.0063520167 0.051009953 0.11477153
000020 91 52 d6 bd f6 b7 91 bd e5 0b ad bd 70 d0 aa 3c
       -0.10464967 -0.07115166 -0.08449534 0.020851344
000030 b9 e0 8f bd fe de 57 bd 8c d3 d2 bd b4 40 52 3d
       -0.07025284 -0.052702896 -0.102942556 0.051331237
000040 e2 25 d2 3c f0 cd 06 be 42 c1 28 3d 90 01 fe bd
       0.02565283 -0.13164496 0.04119993 -0.12402642
000050 fb d3 80 bc c9 6c f4 3d ce ca 06 be 51 fa d5 bd
       -0.01572608 0.119348116 -0.13163301 -0.10448135
000060 44 df 88 3d a5 84 03 bd 4c 27 07 be db be 1d 3e
       0.066832095 -0.03210892 -0.13198584 0.15404837
000070 b6 36 c3 bc 3a 3a 8f 3b 90 10 29 be 1f b3 0f be
       -0.0238298 0.004370955 -0.16510224 -0.14033173

conv2.0.weight f4 [1, 32, 1, 1]
000000 05 f5 1b 3f 55 22 e2 be 9b 70 49 bf 58 f8 ab 3e
       0.60920745 -0.44166818 -0.7868745 0.3358791
000010 f5 eb 02 3f f5 a7 f2 be 96 9b a3 3e e5 83 3b 3f
       0.5114129 -0.47393766 0.3195464 0.7324813
000020 6e 0a 20 bf 4d 7d 1a bf 27 f2 4d bf 4d ff 0f 3f
       -0.62515914 -0.60347444 -0.8044762 0.56248933
000030 06 82 44 bf 05 3a 26 bf b9 08 45 bf c8 61 2d 3f
       -0.767609 -0.6493228 -0.76966435 0.6772733
000040 32 c6 f9 3e 5b 65 41 bf a9 fe 05 3f fd 80 0f bf
       0.48784024 -0.7554528 0.52341706 -0.56056195
000050 32 41 dc be 32 44 60 3f f1 b1 31 bf 5a e2 f6 be
       -0.4301849 0.8760406 -0.6941214 -0.48219568
000060 7c 1b e8 3e e1 7e 33 bf 77 33 2f bf 76 72 31 3f
       0.4533347 -0.70115477 -0.68437904 0.6931528
000070 c3 9a 1d bf 27 ab 00 bf 72 92 e7 be 5b 35 d0 be
       -0.6156427 -0.5026116 -0.45228916 -0.40665707

conv3.0.weight f4 [4, 32, 1, 1]
000000 31 4b 4e bd c7 19 06 3e 8a 86 f7 3d 82 d7 df bd
       -0.050364677 0.13095771 0.12086208 -0.10929777
000010 a1 dc 42 3e 87 70 f0 bb 93 dd 04 bd 4e 27 03 3e
       0.19029476 -0.007337633 -0.032437872 0.12807962
000020 2c aa 38 3e d0 e7 72 bb 07 6f 0c be 7b bd 10 3e
       0.18033665 -0.003706444 -0.13714229 0.14134781
000030 81 21 ca bc 88 b5 6a bd 67 8a a9 3d be 78 a6 bd
       -0.024674179 -0.057302028 0.08278351 -0.081284985
000040 94 b1 20 3e 15 31 a8 bd 71 fe 7d 3d 8f d9 c9 3d
       0.1569274 -0.08212487 0.062010232 0.09855949
000050 5d 85 b2 bd 39 5d 01 bd 3d b1 93 3d f0 5a f8 3d
       -0.08716843 -0.031583045 0.0721154 0.1212672
000060 b9 31 d0 3c 50 01 1a be db 6e 1b be 18 a6 df bd
       0.025414335 -0.15039563 -0.15179007 -0.10920352
000070 9a fd b8 3c 8b 33 1e 3d 07 4d ad bb 78 4b bf 3d
       0.022581864 0.038623374 -0.0052887234 0.093405664
000080 4d e8 39 bd 5f 49 06 be 75 c3 9d 3d d9 47 2e 3e
       -0.045387555 -0.13113926 0.07703296 0.17019595
000090 12 8c da 3b 08 7b 57 bd 97 22 af bd 36 a7 bb 3c
       0.0066695297 -0.052607566 -0.08551519 0.02290688
0000a0 35 e0 32 bd f9 a8 23 bd 46 da 07 be 5b ea 03 be
       -0.04367085 -0.039956067 -0.13266858 -0.12882368
0000b0 a4 d2 bc bc 4a 57 d5 3d 30 d3 b3 3b e1 0b 10 be
       -0.02304966 0.1041704 0.005487822 -0.14067031
0000c0 4a 8c bf bd 8e a4 c4 bd 3d 78 9a 3d ba cc e5 3d
       -0.0935293 -0.09601699 0.07542465 0.11220689
0000d0 4e 80 83 3d 11 3e 25 bd b9 e5 91 bc 05 ce f0 bd
       0.064209566 -0.040342394 -0.017809736 -0.11758045
0000e0 55 d2 c4 3c 4e 2c 9d bd a5 70 e2 3d 06 57 a7 bd
       0.024026075 -0.07674466 0.110566415 -0.08170895
0000f0 3d 34 1f 3d 68 7e 9c bd e1 74 a0 bd d3 3c 77 3d
       0.038868178 -0.076412976 -0.07834793 0.06036074
000100 a7 bb f4 bd 2c 5a 59 3e c6 3d 65 bd dd 5b b0 3d
       -0.11949854 0.21225804 -0.055967115 0.086112715
000110 0b 38 b0 3d 92 20 35 3e 71 f4 fe bc 38 92 8f 3d
       0.08604439 0.17688206 -0.031122418 0.07010311
000120 71 3a 51 bd b6 be 4e bd e0 29 87 3d c2 af 7a bd
       -0.051081125 -0.050474845 0.06599784 -0.061202772
000130 27 f9 c4 bd 48 40 0c 3e 7f b1 c5 bd 6c 47 64 3d
       -0.096178345 0.13696396 -0.09652995 0.055732176
000140 db 3b 85 bd a1 1c d5 bd d0 44 0c be 12 8b b8 3d
       -0.06505557 -0.10405851 -0.13698125 0.090109006
000150 ff 79 e8 3d 9a ee e7 3d 2b c0 04 be 4b 48 a1 bc
       0.11351394 0.113248065 -0.12963931 -0.019687792
000160 df 0e 01 bd 2a 4b 21 be d8 73 16 be 28 07 da bd
       -0.031508323 -0.15751329 -0.14692628 -0.10645896
000170 36 1b da bd a4 d8 2d be 27 60 31 3e 58 1f 3b 3e
       -0.10649721 -0.16977173 0.17321835 0.18273675
000180 ed 8a 01 3e 0b b0 83 3d 5d 4f 7c bd d7 85 98 3d
       0.12650652 0.06430062 -0.061599124 0.07447403
000190 f3 8a a2 bc ce 3c 39 3e f9 b8 60 be 3e 8f 14 3e
       -0.019841647 0.18089601 -0.21945561 0.14507768
0001a0 7f 55 04 bd 1c 18 63 3d bd 26 c4 3d f8 1e b3 3c
       -0.032308098 0.055442914 0.09577701 0.021865353
0001b0 c3 b6 3e be cc 37 b8 3d a5 0a 14 3e 70 80 9e 3d
       -0.18624406 0.089950174 0.14457186 0.07739341
0001c0 ac 62 1e be 34 9c 2e be 84 af 59 3e 1c ad 33 be
       -0.15467328 -0.17051774 0.2125836 -0.17546505
0001d0 56 f3 0c 3d 23 4d 29 bd 29 b4 6c bc a6 dd f9 3d
       0.03441175 -0.04133333 -0.01444725 0.12200479
0001e0 c8 8a fb 3d 2a ed a2 3d e4 28 b5 3d 40 4e 80 3d
       0.1228233 0.07955392 0.0884569 0.06264925
0001f0 01 f4 ad 3d f8 6a 87 ba 57 05 c6 3d f6 ca 77 3d
       0.08493806 -0.0010331562 0.09668987 0.060496293

conv3.0.bias f4 [4]
000000 60 b2 48 3c 04 96 99 bb 2b 54 1e be d5 98 25 3e
       0.012249559 -0.0046870727 -0.15461795 0.16171582
