MTCNN2Detector/parameter/rnet.pkl (torch_old, 401219 bytes, 11 tensors)

conv1.0.weight f4 [28, 3, 3, 3]
0	0xbe22d307	-0.15900813
1	0x3e0f8c9d	0.14018483
2	0xbdee1706	-0.11625485
3	0xbe6c7110	-0.23090005
4	0x3deffb9a	0.11717911
5	0x3e3d1eb1	0.18468739
6	0xbe23ce3e	-0.15996644
7	0xbd818fb3	-0.063262366
8	0xbe4aeacf	-0.19816135
9	0x3e3a9655	0.1822141
10	0xbcd107a0	-0.025516331
11	0x3d20a6fa	0.03922174
12	0xbb332042	-0.002733246
13	0xbdfb2669	-0.122631855
14	0x3e599bdd	0.21250863
15	0x3e8c1f97	0.2736785
16	0x3dba4040	0.09094286
17	0xbd69d958	-0.05709204
18	0xbd84b020	-0.06478906
19	0xbd51b3cd	-0.051196862
20	0x3dc718a2	0.09721495
21	0xbd99df9c	-0.07513353
22	0xbd8eaa55	-0.06966082
23	0xbcc3db1c	-0.02390819
24	0x3e1caf32	0.15301207
25	0xbd8bbb25	-0.06822804
26	0xbe1861ea	-0.14881101
27	0x3da052b3	0.078282736
28	0xbe3c54b9	-0.18391694
29	0xbdd530c2	-0.104096904
30	0xbd8ed752	-0.06974663
31	0xbd4a4c1c	-0.04938899
32	0x3e01bb17	0.12669025
33	0x3d6307e8	0.05542746
34	0x3d9852d6	0.07437675
35	0x3e157246	0.14594373
36	0xbe4b5d0a	-0.1985971
37	0xbe818b46	-0.2530157
38	0xbd1de043	-0.03854395
39	0x3d374f83	0.044753563
40	0xbe106342	-0.14100364
41	0x3e263752	0.1623204
42	0x3da3a9f9	0.07991404
43	0x3e32a7dd	0.17446847
44	0x3e18b89b	0.14914171
45	0xbe53c806	-0.20681772
46	0xbda02f74	-0.07821551
47	0xbe8db602	-0.27677923
48	0xbe3d59d6	-0.18491301
49	0x3e16ce34	0.14727098
50	0xbddc2560	-0.10749316
51	0x3e41b6e5	0.18917425
52	0x3e6f77c8	0.23385537
53	0x3d73d06f	0.05952495
54	0xbe4c8ab7	-0.1997479
55	0x3d1538e8	0.036431223
56	0x3e689ad0	0.22715306
57	0xbe844a44	-0.2583791
58	0x3d17b33b	0.037036162
59	0x3dd73bca	0.10509451
60	0xbe89e6a6	-0.26933783
61	0x3e6fe4c2	0.23427108
62	0x3ce6a3b7	0.028154237
63	0x3cc43262	0.023949806
64	0x3e0aee4a	0.13567463
65	0x3dd1d2b9	0.1024527
66	0xbe0e19f0	-0.13877082
67	0xbe3098b8	-0.17245758
68	0x3d999b71	0.07500351
69	0x3c5ce0ee	0.013481362
70	0x3e0240f2	0.12720087
71	0x3d8baf8d	0.06820593
72	0xbde4cd71	-0.11171997
73	0xbe572587	-0.2101041
74	0x3d0b1a88	0.03396085
75	0x3c99ab55	0.018758455
76	0x3e23651c	0.15956539
77	0x3e5122ac	0.20423383
78	0xbe53f28a	-0.2069799
79	0xbdaa5ac9	-0.08318097
80	0x3da88615	0.08228699
81	0x3b4722cb	0.0030385728
82	0x3d391850	0.0451892
83	0x3e2218c3	0.15829758
84	0x3cbc37b5	0.022975782
85	0x3e139d51	0.1441548
86	0x3e38a64b	0.18032186
87	0xbd8608a5	-0.065446176
88	0x3e41b59d	0.18916936
89	0x3e01d055	0.12677129
90	0xbd692791	-0.0569225
91	0x3d454b31	0.04816741
92	0xbe2c3644	-0.16817576
93	0x3da3ea82	0.08003713
94	0x3e8740b0	0.2641654
95	0x3e0e9489	0.13923849
96	0x3d308c37	0.04310247
97	0x3dcefc6f	0.10106742
98	0x3dae5f18	0.085142314
99	0x3dbf52b5	0.09341947
100	0xbe63326f	-0.22187208
101	0xbc6be438	-0.014397673
102	0x3daac2ef	0.08337962
103	0xbe101446	-0.14070234
104	0x3c9dc4af	0.019258825
105	0xbd884935	-0.06654588
106	0xbdb0350d	-0.08603869
107	0xbce3b70d	-0.027797246
108	0xbe2fb3c0	-0.17158413
109	0x3cdaae2c	0.02669438
110	0xbe1a751e	-0.15083739
111	0x3e2faa2d	0.1715476
112	0xbcd37122	-0.025810782
113	0xbe51347c	-0.20430177
114	0xbc0bd677	-0.008535019
115	0xbe54d385	-0.20783813
116	0x3b98751c	0.0046526324
117	0x3e6576b3	0.22408561
118	0x3e346828	0.17617857
119	0x3e262e2b	0.16228549
120	0x3dcf99ca	0.10136755
121	0x3e8d03da	0.27542
122	0x3e8a6459	0.27029684
123	0x3da14678	0.07874769
124	0x3e7b6926	0.2455183
125	0x3e08c619	0.13356818
126	0xbe3dce86	-0.18535814
127	0xbe7a4706	-0.24441156
128	0xbe2c88c4	-0.16849047
129	0xbe248b73	-0.1606882
130	0xbd282850	-0.04105407
131	0x3b828bec	0.003983965
132	0x3c865829	0.01639946
133	0xbe879f19	-0.2648857
134	0xbd59fd20	-0.053219914
135	0x3d68427e	0.056704037
136	0xbd86969e	-0.06571697
137	0xbdc67b3b	-0.09691473
138	0xbe3525d4	-0.17690212
139	0xbd43ca12	-0.04780013
140	0xbe8b82c2	-0.27248198
141	0x3dbd69ef	0.09248721
142	0xbea9bc31	-0.3315139
143	0x3e6aab21	0.22916843
144	0xbd96d0a0	-0.07364011
145	0x3dea60ca	0.11444242
146	0x3df1faf7	0.11815446
147	0x3e6b46db	0.22976248
148	0x3e21b18c	0.15790385
149	0x3c3b238a	0.011422047
150	0xbd649d8b	-0.055814307
151	0xbe6a7616	-0.22896609
152	0x3dc7dcfd	0.09758947
153	0xbe1bf3bf	-0.152297
154	0x3e564b19	0.20927085
155	0xbdb1bc06	-0.08678441
156	0xbdb660c6	-0.08905177
157	0x3e4e0c35	0.20121844
158	0xbe2a7479	-0.16645993
159	0x3e147126	0.14496288
160	0xbe3ad44a	-0.18245044
161	0x3e1947af	0.14968751
162	0x3da969ad	0.08272109
163	0x3e158ad6	0.14603743
164	0x3e83c054	0.25732672
165	0xbddf5182	-0.10904218
166	0xbd1e1280	-0.03859186
167	0xbd21b5ef	-0.039480146
168	0xbddf6c06	-0.10909276
169	0xbdd171a1	-0.10226751
170	0x3dad5cdd	0.08464978
171	0xbe3c22d3	-0.1837266
172	0x3b08505d	0.0020799853
173	0xbde18863	-0.11012342
174	0x3e426492	0.18983677
175	0x3e2e6bb7	0.17033277
176	0xbdb489bb	-0.088153325
177	0xbd8b82c4	-0.06812051
178	0xbe4749f4	-0.19461805
179	0x3e3276ce	0.17428133
180	0x3c53fc65	0.0129385935
181	0xbdd2c30c	-0.102911085
182	0xbdd84679	-0.105603166
183	0xbd459bdf	-0.048244353
184	0xbe187b21	-0.1489072
185	0x3e1e4640	0.15456486
186	0x3d4ef3e1	0.05052555
187	0xbe2b7b52	-0.16746262
188	0xbe05f65f	-0.13082264
189	0xbe032448	-0.12806809
190	0x3dbd3605	0.09238819
191	0x3da5d99d	0.08098147
192	0xbe366fa8	-0.17816031
193	0x3e2f2cc8	0.17106926
194	0x3d33f611	0.04393584
195	0xbe7288b6	-0.23684964
196	0x3e468a31	0.19388653
197	0xbe0fe79c	-0.14053196
198	0x3cf1cd79	0.029516922
199	0xbd71af5f	-0.059005138
200	0xbe696f0a	-0.22796264
201	0xbdf81877	-0.12114041
202	0xbca83321	-0.020532193
203	0xbdf515e9	-0.1196707
204	0xbbfa5b6b	-0.0076402924
205	0x3e1e95a3	0.1548677
206	0x3dfe2ecc	0.124112695
207	0xbe261018	-0.16217077
208	0x3c25ad95	0.010112186
209	0x3ddfa080	0.10919285
210	0xbd7490a0	-0.059708238
211	0xbc2e45ee	-0.01063679
212	0x3e2d6d8d	0.16936322
213	0xbe03be85	-0.12865646
214	0x3e8f1609	0.279465
215	0xbe01e33b	-0.12684338
216	0xbe9e296f	-0.30890986
217	0xbd86d2c6	-0.065831706
218	0xbc33ee39	-0.01098209
219	0xbd6b81cb	-0.057496827
220	0x3e0d0e7a	0.13775054
221	0x3dfce706	0.12348752
222	0x3e1d5952	0.15366104
223	0xbd1060b7	-0.035248484
224	0x3e160cb5	0.14653285
225	0xbe1e4535	-0.15456088
226	0xbe437031	-0.19085766
227	0xbdcc80e3	-0.09985521
228	0xbe290dd8	-0.16509187
229	0x3cf16470	0.029466838
230	0x3e1fe9f0	0.15616584
231	0x3e4188bc	0.18899816
232	0xbd06110a	-0.032731093
233	0x3e6e5800	0.23275757
234	0xbe99611c	-0.299569
235	0x3e05cb0f	0.13065742
236	0x3d703015	0.058639605
237	0x3e1c7c14	0.15281707
238	0x3d03dec5	0.03219487
239	0xbe19e7a1	-0.15029766
240	0xbd6a71d6	-0.05723747
241	0x3e5dcc52	0.21659973
242	0xbdd7cf89	-0.10537631
243	0xbd004b84	-0.031322017
244	0x3e477bd2	0.19480827
245	0x3e95523c	0.29164302
246	0xbcb7fd6e	-0.022459712
247	0xbe343874	-0.1759966
248	0x3d7644d6	0.06012424
249	0xbd2668f2	-0.040627427
250	0xbe803e60	-0.25047588
251	0xbdc89d2e	-0.09795605
252	0xbdd612e9	-0.104528256
253	0x3e822fd3	0.25427112
254	0x3e2e4809	0.17019667
255	0xbe49344c	-0.19648856

conv1.0.bias f4 [28]
0	0x3d951a74	0.07280436
1	0xbdbe0317	-0.09277933
2	0xbc1da3ac	-0.009621542
3	0xbe567afa	-0.2094535
4	0xbce95616	-0.028483432
5	0x3db2b40f	0.0872575
6	0xbe0d9bd1	-0.1382897
7	0xbd23b666	-0.03996887
8	0xbc8d5808	-0.01725389
9	0xbb264ce3	-0.0025375418
10	0x39a304e5	0.0003109343
11	0xbcfba8f2	-0.030720208
12	0xbd8bd65c	-0.06827995
13	0xbd0c7196	-0.03428801
14	0xbd413199	-0.04716644
15	0x3d7a1e55	0.061064083
16	0x3e39de35	0.18151172
17	0x3cf26753	0.029590284
18	0xbd3c970b	-0.046042483
19	0xbe72ee64	-0.23723751
20	0x3d316dd1	0.04331762
21	0x3d950614	0.0727655
22	0x3b56b46a	0.0032761344
23	0xbdae20e0	-0.08502364
24	0x3d1884d2	0.037236042
25	0xbd2071e9	-0.039171133
26	0xbc766c8b	-0.015040527
27	0xbd513450	-0.05107528

conv1.3.weight f4 [48, 28, 3, 3]
0	0xbcb294c2	-0.021799449
1	0x3c59747d	0.013272402
2	0x3db90865	0.09034804
3	0x3ccc038e	0.024904039
4	0x3cec7527	0.028864456
5	0x3cb2b903	0.021816736
6	0x3d28925b	0.0411552
7	0xbd26e30f	-0.040743884
8	0x3d85c3c8	0.06531483
9	0x3dc40284	0.09570792
10	0x3d87f587	0.066386275
11	0xbc8f3d10	-0.017485172
12	0xbd82e041	-0.06390429
13	0xbd900dea	-0.07033904
14	0xbd2b71e1	-0.04185665
15	0x3d615603	0.055013668
16	0xbd682f08	-0.056685477
17	0xbd3ab233	-0.0455801
18	0xbdd5167b	-0.104046784
19	0xbe2280ac	-0.15869397
20	0xbd859e2c	-0.065243095
21	0xbbf5bb80	-0.0074991584
22	0xbe01fd8c	-0.12694377
23	0xbd82d62d	-0.06388507
24	0xbc10499e	-0.008806614
25	0xbd0ceaf4	-0.034403756
26	0xbbcdd238	-0.0062811635
27	0x3e0a28d0	0.13492131
28	0xbc0dd01e	-0.008655576
29	0x3d0d8da1	0.034558896
30	0x3e1eec0f	0.15519737
31	0x3c095a8e	0.008383406
32	0xbd0af400	-0.033924103
33	0xbb972935	-0.0046130666
34	0x3cb2bfbb	0.02181994
35	0xbd5bb52b	-0.053639572
36	0x3dac384f	0.084091775
37	0x3df7370e	0.12071048
38	0xbd59e246	-0.053194307
39	0xbdd40c4d	-0.10353909
40	0x3b9b200d	0.0047340454
41	0x3d1023f1	0.035190526
42	0xbda05c94	-0.07830158
43	0x3ca7c615	0.020480195
44	0x3dc3ec31	0.09566534
45	0xbd84bd9f	-0.0648148
46	0xbd80ed55	-0.062952675
47	0x3d5c44c5	0.05377652
48	0xbdfca17d	-0.12335489
49	0xbd0004d1	-0.031254593
50	0x3dd0feaa	0.10204823
51	0xbd53c900	-0.05170536
52	0x3db7e997	0.089801006
53	0x3e1978a4	0.14987427
54	0xbdb409cf	-0.08790933
55	0xbb0c6774	-0.0021423968
56	0x3ce44d9d	0.02786904
57	0x3dac80e2	0.0842302
58	0xbd20e47d	-0.039280403
59	0xbcc0ff43	-0.023559218
60	0x3c66294c	0.014047932
61	0x3c53ae99	0.012920045
62	0x3c392da2	0.011302384
63	0xbda977bb	-0.0827479
64	0xbd081546	-0.033223413
65	0x39beef4e	0.0003641792
66	0xbdfc6963	-0.123247884
67	0xbde91ced	-0.1138247
68	0x3ccf479d	0.025302703
69	0xbd8f5ee1	-0.070005186
70	0x3d13a4de	0.0360459
71	0x3d62c9ac	0.05536811
72	0x3dc270b7	0.09494155
73	0x3d6d551c	0.057942495
74	0xbe2b3ebf	-0.16723154
75	0xbd0b10a5	-0.03395142
76	0xbe179c2c	-0.14805669
77	0xbe78d481	-0.24299814
78	0x3cae2399	0.021257209
79	0x3d9c4be8	0.076316655
80	0xbe389143	-0.18024163
81	0xbd27b1a3	-0.040940892
82	0xbdabbcdb	-0.08385631
83	0xbdd36bc0	-0.10323286
84	0x3dc42f2f	0.09579312
85	0xbddf8fcd	-0.109161
86	0xbe0da8c1	-0.13833906
87	0x3c80b6e0	0.015712202
88	0xbe004367	-0.12525712
89	0xbd3d6aa8	-0.046244293
90	0xbd057279	-0.032579873
91	0xbd641fbe	-0.055694334
92	0x3e22f969	0.15915455
93	0x3d568f40	0.052382708
94	0x3d98d47f	0.074624054
95	0x3e1392bd	0.14411445
96	0x3d480323	0.048831116
97	0x3ce06b2f	0.02739486
98	0x3de563fd	0.11200712
99	0xbc899013	-0.016792333
100	0xbd2663ee	-0.040622644
101	0xbe431470	-0.19050765
102	0x3d5f9d92	0.05459363
103	0xbd19acc2	-0.03751827
104	0xbc411494	-0.011784691
105	0x3e1a6d5e	0.15080783
106	0xbcfbe304	-0.030747898
107	0xbd549ddf	-0.05190837
108	0x3d9135a3	0.070903085
109	0xbd1b8a0d	-0.037973452
110	0xbebda4af	-0.37039706
111	0x3dbbf010	0.09176648
112	0xbe33b9c3	-0.17551331
113	0xbdef1e5f	-0.11675715
114	0x3d59ac06	0.05314257
115	0xbd8f836f	-0.07007491
116	0xbdd0ceb9	-0.10195679
117	0x3d90c7f1	0.07069386
118	0x3d85701e	0.06515525
119	0xbdc6760e	-0.09690486
120	0x3db72a86	0.089436576
121	0x3d68f364	0.05687274
122	0xbc07f0cc	-0.008297157
123	0x3e0250db	0.12726156
124	0x3cb0aa96	0.021565717
125	0xbdac4ede	-0.0841348
126	0xbdc49d5e	-0.09600328
127	0x3c51f53f	0.012814819
128	0x3e0a9a73	0.1353548
129	0xbd7e1cb8	-0.062039107
130	0xbd39b784	-0.04534103
131	0x3dc397c8	0.09550434
132	0xbd98fdd5	-0.074702896
133	0xbdab7c82	-0.08373357
134	0x3cfbe7b1	0.030750128
135	0x391f7da2	0.00015210224
136	0xbd30686a	-0.043068327
137	0xbd6a0173	-0.05713029
138	0x3d01903b	0.03163169
139	0x38e47628	0.000108938955
140	0x3d0461c3	0.032319795
141	0x3dd3a1db	0.10333606
142	0x3ca583ac	0.020204388
143	0x3c7615f6	0.015019884
144	0xbdc5b5fe	-0.09653853
145	0x3d502d42	0.05082441
146	0xbc8fc9b5	-0.017552236
147	0xbd3215fa	-0.04347799
148	0xbd09b106	-0.03361609
149	0xbc786bdc	-0.015162434
150	0xbdc72a16	-0.09724824
151	0xbd7c67e1	-0.061622504
152	0x3dc46b1c	0.09590742
153	0xbdf826a1	-0.12116743
154	0x3d19cb0e	0.037547164
155	0x3dd28ea4	0.10281113
156	0xbdbcd76a	-0.092207745
157	0x3ccd51c3	0.025063401
158	0x3d58403d	0.052795637
159	0xbe622855	-0.22085698
160	0xbe230a47	-0.15921889
161	0x3e0fa810	0.14028955
162	0x3e1a64a5	0.15077455
163	0x3dc98011	0.0983888
164	0xbd769b56	-0.060206734
165	0x3dbbf3af	0.09177338
166	0xbd36f853	-0.044670414
167	0x3b85b043	0.00407985
168	0x3d14be49	0.036314283
169	0xbdd88296	-0.10571782
170	0xbdb127dc	-0.08650181
171	0x3c63ad5b	0.013896312
172	0xbd4715fb	-0.048604947
173	0x3d3cfdc3	0.046140444
174	0x3d8cfd99	0.068843074
175	0x3d16794b	0.036736768
176	0xbbd980a5	-0.00663765
177	0xbbc4dd32	-0.006007814
178	0xbd0d938b	-0.034564536
179	0xbca58020	-0.020202696
180	0x3d0ec26c	0.034853384
181	0x3c54b89d	0.012983468
182	0x3d81ccae	0.06337868
183	0x3d018fcb	0.031631272
184	0x3cd5ca34	0.026097395
185	0xbdabb9dc	-0.08385059
186	0x3d18b117	0.03727826
187	0xbd920c62	-0.07131268
188	0xbded14da	-0.11576243
189	0xbdba92ff	-0.091100685
190	0xbdea5c1f	-0.11443352
191	0x3d7a8bc8	0.061168462
192	0xbcf69090	-0.03009823
193	0xbdad8510	-0.08472645
194	0x3cbc5f63	0.022994703
195	0xbe280890	-0.16409516
196	0x3d0fedaf	0.035138782
197	0x3e116da7	0.14201985
198	0xbcfcdfe0	-0.03086847
199	0x3d4016f6	0.046896897
200	0xbcfea7c8	-0.031085864
201	0xbdd99c01	-0.106254585
202	0xbd9a792b	-0.07542642
203	0x3d6b53f0	0.057453096
204	0xbd76426e	-0.060121946
205	0xbd302c27	-0.043010857
206	0x3d05825b	0.03259502
207	0x3d8c2d25	0.06844548
208	0xbcd9a21b	-0.026566556
209	0xbdd31982	-0.103075996
210	0x3d09d66f	0.033651765
211	0x3ca3fec5	0.020018945
212	0xbd712bb8	-0.058879584
213	0x3d0292d8	0.031878322
214	0x3d1d5f44	0.03842093
215	0x3d111fd7	0.035430755
216	0xbca0f377	-0.019647343
217	0xbd857449	-0.0651632
218	0x3c6c9c2f	0.014441534
219	0xbd22e5b5	-0.039769847
220	0xbd8bd4a6	-0.06827669
221	0xbe2fa6f7	-0.17153536
222	0xbd64b6f4	-0.05583854
223	0xbd0aedf9	-0.033918355
224	0xbd21730a	-0.03941635
225	0x3d096b7f	0.033549782
226	0xbd605c9c	-0.05477582
227	0xbe349fd1	-0.1763909
228	0x3d035de1	0.03207195
229	0xbd2056a5	-0.03914513
230	0xbdd73e2c	-0.10509905
231	0x3dde35f5	0.10850135
232	0xbd937955	-0.072008766
233	0xbd857e79	-0.06518263
234	0xbd0acb6d	-0.03388541
235	0x3d433e81	0.04766703
236	0x3e57ad77	0.21062265
237	0xbd89912d	-0.06717143
238	0xbcc122f3	-0.023576235
239	0x3e4460e1	0.19177581
240	0x3cd5d082	0.0261004
241	0x3d0b6a62	0.034037
242	0x3e35794b	0.17722051
243	0xbd91416f	-0.070925586
244	0x3df93ab9	0.121694036
245	0x3def90ed	0.11697564
246	0x3c4f9367	0.012669421
247	0x3d61e76e	0.05515235
248	0x3d5df9d9	0.05419335
249	0xbdbb9521	-0.091593035
250	0xbc9c8a7a	-0.019109
251	0x3d8adeb3	0.06780758
252	0x3c825102	0.015907768
253	0x3c8c0087	0.017090095
254	0x3d925c59	0.0714652
255	0x3d2f7811	0.042839114

conv1.3.bias f4 [48]
0	0xbc911d50	-0.017714173
1	0x3d8722cf	0.06598436
2	0x3dc450f1	0.09585751
3	0x3d902f12	0.07040228
4	0x3d005f97	0.03134116
5	0x3d2fbdcb	0.04290561
6	0xbd06b716	-0.032889448
7	0x3e07b696	0.13253245
8	0xbd26d26f	-0.04072803
9	0xbd8b5e35	-0.06805078
10	0x3d7a4764	0.06110324
11	0xbcf84d60	-0.030310333
12	0x3db42c01	0.087974556
13	0x3d021c8a	0.0317655
14	0x3d9fec64	0.0780876
15	0x3dcee871	0.101029284
16	0x3d2f1e97	0.042753782
17	0x3d810171	0.06299103
18	0x3daa06f0	0.083021045
19	0x3d3b4d9e	0.04572832
20	0x3db35339	0.08756108
21	0x3cb19470	0.021677226
22	0x3ce0900b	0.027412435
23	0x3e01472f	0.1262481
24	0xbd4e05d3	-0.050298523
25	0xbdcbcb24	-0.099508554
26	0xbd3227a3	-0.04349483
27	0xbc4239e2	-0.011854621
28	0x3dcb442c	0.09925112
29	0xbd5f56b9	-0.054526065
30	0xbddcc985	-0.10780624
31	0xbd41cee8	-0.04731646
32	0x3d623ae2	0.055231936
33	0x3c3db059	0.011577689
34	0x3d9536d2	0.07285847
35	0x3b945d9e	0.0045277616
36	0x3ca0fd65	0.019652078
37	0xbc863355	-0.016381899
38	0xbcc88baf	-0.024480669
39	0x3d165874	0.03670545
40	0x3ddbbd5e	0.10729478
41	0x3d97134d	0.07376728
42	0x3dafc34b	0.08582171
43	0xbcdebf17	-0.027190728
44	0x3cfaad71	0.030600281
45	0xbba9f09e	-0.0051861545
46	0x3df49d17	0.11944025
47	0x3db103c0	0.086432934

conv1.6.weight f4 [64, 48, 2, 2]
0	0xbdcaed9d	-0.099086024
1	0xbd9cf0bc	-0.07663104
2	0xbd0d9380	-0.034564495
3	0x3cb44959	0.022007631
4	0x3ca4a4fa	0.020098198
5	0xbd5817c5	-0.052757043
6	0x3d7e0f13	0.062026095
7	0x3d43512c	0.047684833
8	0x3d65ae91	0.056074683
9	0x3c20bd4a	0.009810755
10	0x3d3bb980	0.045831203
11	0x3d081107	0.033219364
12	0xbc3cffdd	-0.011535612
13	0x3db64e96	0.08901708
14	0xbe0ffc64	-0.14061123
15	0xbcd6bda5	-0.026213476
16	0x3d5c4afa	0.05378244
17	0xbce1d4b2	-0.027567241
18	0x3c206846	0.009790486
19	0xbceb72f7	-0.028741343
20	0xbdcfad3d	-0.101404645
21	0xbd3ff4bc	-0.046864256
22	0xbd31da82	-0.043421276
23	0x3b489485	0.0030606103
24	0x3db45c51	0.088066705
25	0x3ca12acc	0.019673727
26	0x3d2be4de	0.04196631
27	0xbe02b632	-0.12764814
28	0xbd525eec	-0.051360056
29	0x3cab1191	0.0208824
30	0x3d210a3c	0.0393164
31	0x3d946ea2	0.07247664
32	0x3da53f45	0.08068708
33	0x3d15b63a	0.036550738
34	0xbdc88494	-0.09790912
35	0x3d53e92a	0.051736034
36	0xbdf05c7c	-0.1173639
37	0x3d6fc0b7	0.058533397
38	0x3d9ca996	0.076495335
39	0x3db41b50	0.08794272
40	0x3d20580f	0.03914648
41	0xbb85f7ea	-0.0040883915
42	0x3a3b059b	0.0007134319
43	0xbd381e03	-0.044950496
44	0x3dbf02f4	0.09326735
45	0xbdb1012e	-0.08642803
46	0xbcc5bc88	-0.02413775
47	0xbd67c54b	-0.056584638
48	0xbdf26fbb	-0.11837717
49	0xbd6a45d7	-0.05719551
50	0xbd85f2df	-0.065404646
51	0xbdbecf80	-0.09316921
52	0xbcefd44e	-0.02927604
53	0x3d3df63e	0.046377413
54	0x3d27bef7	0.040953603
55	0xbd2ced8f	-0.04221874
56	0xbd026b7d	-0.03184079
57	0x3d777c20	0.06042111
58	0x3d809062	0.06277539
59	0x3de4d7f4	0.11174002
60	0x3daa3563	0.08310964
61	0x3d773a81	0.060358528
62	0x3c979c2d	0.018507088
63	0x3d0e0cef	0.034680303
64	0x3deabc9d	0.114617564
65	0x3d13cdda	0.036084987
66	0x3d77002e	0.060302906
67	0xbde71cc5	-0.11284784
68	0x3d20297a	0.039102055
69	0xbd044171	-0.032288972
70	0xbdd30287	-0.103032164
71	0xbc8c6d65	-0.017142007
72	0xbe2d3fe1	-0.16918899
73	0xbd7abbcc	-0.061214253
74	0x3c6df6a5	0.014524137
75	0x3dfd498e	0.12367545
76	0xbe6bf793	-0.23043661
77	0xbccaa778	-0.024738058
78	0xbdc7e3d3	-0.09760251
79	0x3da1b2c6	0.078954265
80	0xbd040067	-0.032226946
81	0xbd51a99f	-0.051187154
82	0xbd205f55	-0.039153416
83	0x37f40afa	2.9092178e-05
84	0xbb90b380	-0.0044159293
85	0x3ca1c650	0.019747883
86	0x3c485a0f	0.012228503
87	0x3dba4a15	0.09096161
88	0xbd5b0161	-0.053468112
89	0xbd962158	-0.073305786
90	0xbd9cf527	-0.076639466
91	0xbde7eb2d	-0.11324153
92	0xbd5c2fc3	-0.053756487
93	0xbdfaef36	-0.12252657
94	0x3cbf6131	0.023361774
95	0x3d888e63	0.06667783
96	0xbd2f64cd	-0.04282074
97	0x3da6f2b6	0.08151762
98	0xbd46e698	-0.048559755
99	0x3c87a687	0.016558899
100	0xbd47f86c	-0.048820898
101	0xbdd0642a	-0.10175355
102	0x3d2de796	0.042457186
103	0x3b421cef	0.0029619297
104	0xbdb62a57	-0.088947944
105	0x3c4548ab	0.012041251
106	0x3c3d2563	0.011544558
107	0xbd129d46	-0.03579452
108	0x3d4c68c5	0.049904604
109	0x3df6821c	0.12036535
110	0x3ddec208	0.10876852
111	0x3cc2ec52	0.023794327
112	0xbcdd9bc9	-0.027051823
113	0xbda835cc	-0.08213386
114	0x3cea87f1	0.028629275
115	0x3d69c675	0.05707403
116	0x3d44b691	0.04802567
117	0x3cb4e5df	0.022082267
118	0x3d1f1b40	0.038844347
119	0x3a1da728	0.0006013983
120	0xbdbabf88	-0.09118563
121	0xbd6ff3fa	-0.058582284
122	0xbd1bba2e	-0.03801935
123	0xbcedd225	-0.029030869
124	0x3d910f5b	0.07083007
125	0x3d452fc6	0.048141263
126	0xbd1d4f6d	-0.038405824
127	0x3ccdabf4	0.025106408
128	0x3ab8e31a	0.0014105767
129	0xbd6f61b4	-0.058442786
130	0x3e15155e	0.14558932
131	0x3d56ee42	0.052473314
132	0xbbfb9c6f	-0.0076785604
133	0x3cad3f83	0.021148449
134	0xbdb6d9de	-0.089282736
135	0xbdb2caa5	-0.087300576
136	0x3e3779d4	0.17917567
137	0x3d8e36d7	0.069440536
138	0x3de26479	0.1105432
139	0x3daabe06	0.08337025
140	0xbd84f508	-0.064920485
141	0x3b8e98f8	0.0043517314
142	0xbd26cc4d	-0.04072218
143	0xbd393ce7	-0.045224097
144	0x3d850176	0.06494419
145	0x3e2ade79	0.16686429
146	0xbbd89d27	-0.006610531
147	0xbccc2951	-0.024922045
148	0xbd62a262	-0.05533064
149	0xbc4aef76	-0.0123861935
150	0xbd8c2b18	-0.06844157
151	0x3cb5eb4d	0.022206927
152	0x3c7a1db7	0.015265874
153	0xbc948dd2	-0.018134031
154	0xbb0508ec	-0.0020299507
155	0x3cfc59f9	0.030804621
156	0x3d4dd58b	0.05025248
157	0x3ca6b6d4	0.020350851
158	0x3da82f3e	0.08212136
159	0xbdfcbb1f	-0.12340378
160	0x3ddb56d5	0.10709921
161	0xbd7a9bc5	-0.06118371
162	0x3dae2516	0.08503167
163	0xbc03d220	-0.008045703
164	0xbd982de6	-0.074306294
165	0xbdc776cf	-0.09739458
166	0x3c950a93	0.018193519
167	0x3cec5b4a	0.028852124
168	0xbd896e59	-0.067105
169	0xbd9d3919	-0.07676906
170	0x3d620a9b	0.055185895
171	0x3db3a6fd	0.08772085
172	0xbd7c47b8	-0.061591834
173	0x3c675502	0.014119389
174	0x3d175e9f	0.036955472
175	0xbcec1662	-0.028819267
176	0xbd5e6520	-0.05429566
177	0xbc1ef740	-0.009702504
178	0x3d92d15b	0.07168838
179	0xbc26bb4b	-0.01017649
180	0x3d2f3925	0.042779107
181	0x3d31460a	0.043279685
182	0xbdccd51b	-0.10001584
183	0xbde45df4	-0.11150733
184	0xbe4f135d	-0.2022223
185	0xbded9fba	-0.11602731
186	0xbda814b7	-0.08207076
187	0x3d763362	0.060107596
188	0xbdc1f99c	-0.09471437
189	0x3d62e2f4	0.05539222
190	0x3db7fb24	0.08983448
191	0x3c1a98d9	0.009435856
192	0xbd72b312	-0.059252806
193	0xbdff0ad8	-0.1245324
194	0xbd89481b	-0.06703206
195	0xbd7cf57e	-0.061757557
196	0x3dd6ab5a	0.104819015
197	0xbdfacc56	-0.12246005
198	0x3dd40404	0.103523284
199	0x3d19b089	0.037521873
200	0x3da306ef	0.07960307
201	0xbe4848bc	-0.19558996
202	0x3d2e92ae	0.042620353
203	0xbcc7225a	-0.024308372
204	0x3b4c73ef	0.0031197031
205	0x3d573342	0.052539118
206	0x3cf1e1f6	0.029526692
207	0x3d189e30	0.037260234
208	0x3b87aad7	0.0041402387
209	0xbdb5a0bd	-0.08868549
210	0xbda49287	-0.080357604
211	0xbd540d57	-0.051770534
212	0xbc1efe50	-0.0097041875
213	0xbd749b7a	-0.059718587
214	0x3c85f116	0.01635031
215	0x3da3c91c	0.07997343
216	0x3c87fc8e	0.01659992
217	0x3c06e7f6	0.008234015
218	0x3ddd051e	0.10791992
219	0x3d2bb903	0.041924488
220	0xbdfb8f44	-0.12283185
221	0xbe84b140	-0.2591648
222	0xbd53b9fd	-0.051691044
223	0xbc69b0eb	-0.014263372
224	0xbdd4d10a	-0.103914335
225	0x3d398412	0.045291968
226	0xbdb948e3	-0.09047105
227	0x3d9563a4	0.072943956
228	0xbbe349e1	-0.0069362973
229	0xbe046fde	-0.12933299
230	0xbd181c36	-0.03713628
231	0x3d94cfb1	0.072661765
232	0x3d89b262	0.06723477
233	0xbe862f00	-0.26207733
234	0xbd3fcf32	-0.046828456
235	0xbe293c7f	-0.16526984
236	0x3c98772a	0.01861151
237	0xbd917199	-0.07101745
238	0x3d533aba	0.051569678
239	0xbb6fc148	-0.003658371
240	0x3e33a55c	0.17543548
241	0xbd7ca32e	-0.061679058
242	0x3daf521b	0.08560582
243	0xbe01de60	-0.12682486
244	0x3d0d06d3	0.034430336
245	0xbbb8f9ed	-0.005645028
246	0x3d4aeb9a	0.049541093
247	0xbd26e313	-0.0407439
248	0x3c35fc31	0.01110749
249	0x3d363fa0	0.04449427
250	0xbde383ec	-0.111091465
251	0x3de740ca	0.112916544
252	0x3aaee88b	0.001334445
253	0x3ddc9879	0.10771269
254	0x3dc3c421	0.09558893
255	0x3de1d95c	0.11027786

conv1.6.bias f4 [64]
0	0x3d2ade57	0.041715946
1	0x3c03e6bb	0.008050616
2	0x3d19f04f	0.03758269
3	0x3cc56e69	0.0241005
4	0xbca5a064	-0.020218082
5	0x3dd75c23	0.105156206
6	0xbd84e811	-0.06489576
7	0x3df297bd	0.11845348
8	0x3dfd16e4	0.12357882
9	0x3d922eba	0.07137819
10	0xbd90b090	-0.070649266
11	0x3d4119ed	0.047143865
12	0xbdf4cf01	-0.11953545
13	0x3d9d6ec3	0.07687142
14	0x3dc0f2d6	0.09421317
15	0x3d534846	0.051582597
16	0x3d0c98fd	0.03432559
17	0x3cb6f11a	0.022331763
18	0x3d7a7170	0.06114334
19	0x3cd026ea	0.02540918
20	0x3d9773f1	0.07395161
21	0xbd7cbe2b	-0.061704796
22	0xbdc125da	-0.09431048
23	0xbbaf3ceb	-0.005347838
24	0x3d73ec49	0.05955151
25	0x3de7282e	0.112869605
26	0xbdbe174b	-0.092817865
27	0x3d2b1485	0.041767616
28	0x3c4a1168	0.012333252
29	0xbc6edd8f	-0.014579191
30	0xbd5cf95c	-0.053948745
31	0xbd97c959	-0.07411451
32	0xbd479af8	-0.048731774
33	0x3dc2218f	0.09479057
34	0xbd873943	-0.06602719
35	0x3dbbd76e	0.09171949
36	0x3d837c23	0.064201616
37	0x3c940da0	0.018072903
38	0x3d310f6b	0.043227594
39	0x3d742e54	0.059614494
40	0x3d9861db	0.074405394
41	0xbdd69f4b	-0.104796015
42	0xbcbbbcb7	-0.022917135
43	0x3cda5094	0.02664975
44	0x3e13da40	0.14438725
45	0x3c0dd146	0.008655852
46	0xbcc12cd7	-0.023580952
47	0x3e1a31bc	0.15058035
48	0xbda308a3	-0.07960632
49	0xbd229511	-0.039692942
50	0xbcd5303d	-0.026023978
51	0x3d784e36	0.060621463
52	0x3db4fe53	0.08837571
53	0x3db449b7	0.088031225
54	0x3db78503	0.08960917
55	0xbd46b7d6	-0.048515163
56	0xbd1653a4	-0.03670086
57	0x3bd74394	0.0065693352
58	0x3d759709	0.05995849
59	0x3dacef10	0.08444035
60	0x3e297f7c	0.16552538
61	0x3d74bae2	0.059748538
62	0xbbff3fc5	-0.0077895843
63	0x3e1a33f0	0.15058875

linear1.weight f4 [128, 576]
0	0x3d7bb043	0.061447393
1	0xbd96db05	-0.073659934
2	0x3cb2579b	0.02177029
3	0x3c2631e6	0.010143733
4	0x3ca5269f	0.020160018
5	0x3ccb53ea	0.024820287
6	0xba10c7b7	-0.0005522924
7	0xbd0b0347	-0.033938672
8	0x3dbb4541	0.091440685
9	0xbd896a3d	-0.067097165
10	0xbe2a5df6	-0.16637406
11	0x3e71f4ea	0.23628584
12	0xbbed0180	-0.007232845
13	0x3bcecd01	0.0063110595
14	0x3dcb7e45	0.099361934
15	0x3ced1b15	0.028943578
16	0xbdb5d92a	-0.088793114
17	0x3d6ebdcb	0.05828647
18	0xbe121d07	-0.14268886
19	0x3e18fe0d	0.14940663
20	0x3db60adb	0.08888789
21	0xbda67ffd	-0.081298806
22	0x3da24ece	0.07925187
23	0xbbc0c65d	-0.0058830217
24	0x3e014087	0.12622271
25	0xbd488798	-0.048957437
26	0x3d531dae	0.051541977
27	0x3e8e3adc	0.2777928
28	0xbd06fb89	-0.032954726
29	0xbd5a607f	-0.053314682
30	0x3d4c0e71	0.04981846
31	0xbbf1fcc5	-0.007384869
32	0xbd82a687	-0.06379419
33	0x3e148da8	0.14507163
34	0x3caa28de	0.02077144
35	0xbd234a5a	-0.03986583
36	0xbd8933e5	-0.06699351
37	0xbdd69efa	-0.10479541
38	0xbd8a782c	-0.06761202
39	0xbae864c4	-0.0017730226
40	0xbd9d7786	-0.07688813
41	0x3da28e51	0.07937301
42	0x3e1c8b4e	0.15287516
43	0x3ce672dd	0.028130943
44	0xbda6d22c	-0.08145556
45	0xbe160f83	-0.14654355
46	0xbcf42ddc	-0.029807024
47	0x3ce6ccf9	0.02817391
48	0x3ca9c7c4	0.020725138
49	0xbd14b6e4	-0.03630723
50	0x3de37313	0.11105933
51	0x3dbcc8c6	0.09217982
52	0x3cfb1d73	0.03065369
53	0xbce45860	-0.027874172
54	0xbdb17410	-0.08664715
55	0x3dfa33df	0.12216925
56	0x3ddb9e2a	0.10723527
57	0xbe5e5548	-0.2171222
58	0xbd98f900	-0.07469368
59	0xbcc05b93	-0.023481166
60	0xbe642e0a	-0.22283188
61	0xbd9efc9f	-0.077630274
62	0x3b4267ce	0.0029663923
63	0xbd14934b	-0.036273282
64	0xba91d69a	-0.0011126578
65	0xbd4608c9	-0.048348222
66	0x3c58413c	0.013199147
67	0xbd33763c	-0.04381393
68	0x3dd4fab2	0.10399379
69	0xbd18d7ef	-0.037315305
70	0x3d04303d	0.032272566
71	0x3e802914	0.2503134
72	0x3c8c8890	0.017154962
73	0x3c4249f1	0.011858449
74	0xbbb82292	-0.0056193555
75	0xbd85a900	-0.06526375
76	0x3d115e6e	0.035490446
77	0xbc4ec956	-0.012621244
78	0xbc8d771a	-0.017268706
79	0xbde59631	-0.11210287
80	0xbc460e53	-0.012088376
81	0xbd34b49a	-0.044117548
82	0xbd821803	-0.06352236
83	0xbd14bf2b	-0.036315124
84	0xbcb795be	-0.02241027
85	0x3d2cd683	0.04219676
86	0xbcefb348	-0.029260293
87	0xbc3a30e4	-0.0113641955
88	0x3ea73d7d	0.326641
89	0xbdd37bde	-0.1032636
90	0x3c201999	0.009771728
91	0x3ceb6a1d	0.028737122
92	0x3dd03183	0.101656936
93	0x3c7efd8d	0.015563381
94	0x3d4809ad	0.048837353
95	0x3ba786e6	0.0051125167
96	0xbe2146e1	-0.15749694
97	0xbd8540b0	-0.06506479
98	0xbdb53621	-0.08848215
99	0x3da4cae7	0.08046513
100	0xbd815569	-0.06315119
101	0x3cd9f773	0.02660725
102	0x3db10b89	0.08644778
103	0xbc070f45	-0.008243387
104	0x3b60c1f2	0.0034295288
105	0xbdc3c03c	-0.0955815
106	0x3d1c1885	0.03810932
107	0xbd29fbbb	-0.041499835
108	0xbcc9aaad	-0.024617517
109	0x3e195c3b	0.1497659
110	0xbdfc6ebe	-0.1232581
111	0x3ce5abff	0.028036116
112	0x3c01523e	0.007893143
113	0x3cb689cf	0.02228251
114	0xbd844145	-0.06457762
115	0xbd958118	-0.07300013
116	0x3c687137	0.014187149
117	0xbc90731e	-0.017633017
118	0xbd8a6778	-0.06758016
119	0x3d87ada1	0.06624914
120	0x3d41d999	0.047326658
121	0x3c4e1098	0.012577198
122	0xbd924ebc	-0.07143924
123	0x3ced04b5	0.028932909
124	0x3e5af4e3	0.2138248
125	0xbdc6db33	-0.09709778
126	0xbd8af0ea	-0.06784232
127	0xbd135f6b	-0.03597967
128	0xbd9fd099	-0.07803459
129	0x3da9bf22	0.08288409
130	0xbd04be9b	-0.032408338
131	0x3acf2890	0.0015804935
132	0x3e464c12	0.19364956
133	0x3e1c6568	0.15273058
134	0xbd53fc40	-0.051754236
135	0x3c0a5016	0.008441946
136	0x3badaad3	0.005299905
137	0x3def5aae	0.11687218
138	0xbd42a9ae	-0.0475251
139	0x3e12a727	0.14321576
140	0x3d095a4e	0.033533387
141	0x3dc058ad	0.093919136
142	0x3dfcf3eb	0.12351211
143	0x3e224a4c	0.15848655
144	0x3daa836e	0.083258495
145	0x3d68e9d6	0.05686363
146	0x3ce429e2	0.027852003
147	0x3daa5f40	0.08318949
148	0x3c2f0ef3	0.0106847165
149	0xbda1b7ad	-0.078963615
150	0x3e4aa0a1	0.19787838
151	0xbda17d56	-0.07885234
152	0xbd8f2964	-0.069903165
153	0x3e1d7d21	0.15379764
154	0xbd4bb7d6	-0.049735866
155	0xbd524f29	-0.051345024
156	0x3c9aabe6	0.018880796
157	0xbcb9d986	-0.022686731
158	0x3d0177d5	0.03160842
159	0xbd2d89b1	-0.04236764
160	0x3c5ea7bf	0.0135897985
161	0xbdaa6c96	-0.083214924
162	0xbe043d7e	-0.12914082
163	0x3cba36af	0.022731153
164	0xbdf09a78	-0.117482126
165	0x3c81c473	0.015840745
166	0xbda80871	-0.08204735
167	0xbd84b46b	-0.064797245
168	0x3dba6c11	0.09102643
169	0x3d96854f	0.07349645
170	0x3e34f56c	0.17671746
171	0xbd8b0f54	-0.06790033
172	0xbc42561c	-0.01186135
173	0x3e31fcf7	0.17381655
174	0x3c98cd68	0.018652633
175	0x3b39c89f	0.002834834
176	0x3ca85aed	0.02055117
177	0xbdc0df63	-0.09417608
178	0xbdb61501	-0.08890725
179	0xbd0a1047	-0.03370693
180	0xbd388620	-0.045049787
181	0xbd9d09b2	-0.07667865
182	0xbb6bd3a2	-0.0035984297
183	0xbd87f292	-0.066380635
184	0xbdb319e1	-0.087451704
185	0x3c4b6325	0.012413775
186	0xbb6c85c4	-0.0036090473
187	0x3d28a0bb	0.04116891
188	0x3e9d7eaf	0.30760714
189	0xbe7d5720	-0.24740267
190	0x3d000e14	0.031263426
191	0xbdda42d7	-0.1065728
192	0xbcbf8b9e	-0.023382004
193	0xbdc492ec	-0.095983356
194	0x3cab3fd6	0.020904463
195	0x3cd2df35	0.025741199
196	0x3c19239c	0.009346869
197	0x3c7c0c9c	0.015383866
198	0x3d7a7338	0.061145037
199	0x3d0c5f47	0.03427055
200	0x3e574c70	0.21025252
201	0x3da04893	0.078263424
202	0x3e1afd4c	0.15135688
203	0x3e4100af	0.18847917
204	0x3d3ceb27	0.046122696
205	0x3da82eaf	0.08212029
206	0xbcfdad33	-0.030966377
207	0x3de32363	0.11090734
208	0x3d923df0	0.0714072
209	0x3de1a29a	0.11017342
210	0x3b2b9278	0.0026179831
211	0xbd2460be	-0.040131323
212	0xbd79be5c	-0.060972556
213	0x3e5fb00b	0.21844499
214	0xbd07bc5c	-0.033138618
215	0x3dc4b2b1	0.09604395
216	0x3ce40fa8	0.027839497
217	0x3ddd4406	0.1080399
218	0x3dafe1ca	0.08587988
219	0x3dad3f76	0.0845937
220	0x3d493192	0.04911954
221	0x3c7c9a82	0.015417697
222	0xbdcc90be	-0.09988545
223	0x3da027ae	0.07820068
224	0x3d9ac098	0.075562656
225	0xbdb232b3	-0.08701076
226	0xbd99250c	-0.07477769
227	0x3d5df915	0.05419262
228	0x3d842c50	0.064537644
229	0xbd7e030b	-0.06201462
230	0x3ca67457	0.020319147
231	0xbd256437	-0.040378775
232	0xbd82eb5b	-0.06392547
233	0x3e0d8a93	0.13822393
234	0x3d760a0f	0.060068186
235	0x3c90afda	0.017661978
236	0xbe297c48	-0.16551316
237	0x3e7f2375	0.2491587
238	0xbc1d363d	-0.009595451
239	0xbdaed136	-0.085359976
240	0x3e4b4260	0.19849539
241	0x3d54c7ae	0.051948242
242	0xbd62f17b	-0.055406075
243	0x3d3333b5	0.043750484
244	0x3c797fc5	0.015228217
245	0x3e234c02	0.15946963
246	0x3e00f378	0.12592876
247	0xbd82271b	-0.06355115
248	0x3dcf2978	0.101153314
249	0x3d90172b	0.07035669
250	0x3dc4bef0	0.09606731
251	0x3d1a7a5f	0.03771436
252	0x3da776bc	0.08176944
253	0xbd74af29	-0.05973736
254	0x3e0e6782	0.13906673
255	0x3db98e27	0.090603165

linear1.bias f4 [128]
0	0x3d5ff998	0.05468139
1	0xbcd47f24	-0.025939532
2	0x3d5386aa	0.051642098
3	0xbda1ae51	-0.07894576
4	0xbc910cee	-0.01770636
5	0x3d9b478c	0.07582006
6	0xbae14e43	-0.0017189462
7	0x3cf4596f	0.029827802
8	0x3d9e7878	0.07737821
9	0xbd1d5e13	-0.038419794
10	0x3bbbc444	0.005730184
11	0xbc9b4c6f	-0.018957345
12	0xbc376164	-0.011192653
13	0x3d52370b	0.051322024
14	0x3d06df8c	0.032928035
15	0xbd819aaf	-0.06328332
16	0x3d0c2882	0.03421832
17	0x3d8ffbac	0.070304245
18	0x3e161456	0.14656195
19	0x3c2e1df0	0.010627255
20	0xbdb379a3	-0.08763435
21	0x3a95233a	0.0011378296
22	0x3c460e57	0.01208838
23	0xbcec8a4e	-0.028874543
24	0xbd043c32	-0.03228397
25	0x3b19cfa9	0.0023469722
26	0x3da2a662	0.07941891
27	0x3c7b8533	0.015351581
28	0xbd1953ff	-0.03743362
29	0x3aed46b6	0.0018102739
30	0xbc914a3b	-0.017735591
31	0xbdadff49	-0.084959574
32	0xbde7cce2	-0.11318375
33	0xbdae54b2	-0.08512248
34	0xbd887314	-0.066625744
35	0x3d13557b	0.035970192
36	0x3d1101f8	0.03540227
37	0x3cd70a20	0.026249945
38	0x3bafd42b	0.0053658686
39	0xbce88ed1	-0.028388413
40	0x3d9910fa	0.07473941
41	0x3ca178f3	0.019710993
42	0x3d3dfd34	0.04638405
43	0xbb894269	-0.004188825
44	0xbd1c7a5c	-0.03820263
45	0xbc9a1109	-0.018806951
46	0xbc92546d	-0.017862523
47	0x3cc982bd	0.024598474
48	0x3d3921b9	0.045198176
49	0x3d614333	0.054995727
50	0xbdc18151	-0.09448493
51	0x3bb889a8	0.0056316443
52	0x3d3309c3	0.04371048
53	0xbd348fdb	-0.044082504
54	0xbd8a478d	-0.067519285
55	0xbdb57a07	-0.088611655
56	0x3d3432c3	0.043993723
57	0xbca57939	-0.020199405
58	0xbd34afee	-0.044113092
59	0x3d173cf4	0.036923364
60	0xbca6ff49	-0.020385401
61	0xbd052982	-0.032510288
62	0x3c083773	0.008314001
63	0xbd04191e	-0.032250516
64	0x3b9e3b44	0.0048288424
65	0x3d72d203	0.059282314
66	0x3d19aedb	0.03752027
67	0xbd1b6b9e	-0.03794443
68	0x3c8c8e6d	0.017157758
69	0xbcc955d6	-0.024577063
70	0x3d8938a7	0.06700259
71	0xbc18bdba	-0.009322578
72	0x3ad4aa75	0.0016225117
73	0x3d5bad37	0.053631987
74	0x3da3f51d	0.08005736
75	0xbcfb9465	-0.030710408
76	0xbd778708	-0.06043151
77	0x3d54a492	0.05191476
78	0x3dc7a113	0.09747519
79	0xbd4312ae	-0.047625236
80	0x3b9a62e6	0.0047114966
81	0xbdd05745	-0.10172895
82	0xbde2d226	-0.11075239
83	0x3d321078	0.043472737
84	0xbd46725b	-0.0484489
85	0xbcb2d5ef	-0.021830527
86	0xbd39095a	-0.045174934
87	0x3d303d0a	0.04302696
88	0xbcd7f246	-0.026360642
89	0x38ac130b	8.205146e-05
90	0xbce1a9d6	-0.027546804
91	0x3d733ea4	0.05938591
92	0x3d5a1b71	0.053248826
93	0x3ca687d3	0.020328438
94	0xbc092a83	-0.008371952
95	0x3d94a7eb	0.0725859
96	0xbd16b8c5	-0.036797304
97	0x3d742e14	0.059614256
98	0x3d36e4b8	0.044651717
99	0xbc901190	-0.0175865
100	0xbd854ad9	-0.06508417
101	0x3d8bf21e	0.068332896
102	0x3dc52b84	0.096274406
103	0xbd338e6d	-0.043837
104	0x3d221d6f	0.03957885
105	0x3d95e46f	0.07318961
106	0x3dafd017	0.08584612
107	0x3dd7e552	0.10541786
108	0xbd692ca8	-0.056927353
109	0xbc8d815d	-0.0172736
110	0xbd620517	-0.055180635
111	0x3cd7cca0	0.02634269
112	0xbcc630c0	-0.024193168
113	0xbd24a60d	-0.04019742
114	0xbd6a7bc1	-0.057246927
115	0xbd3bb792	-0.045829363
116	0x3d223d6d	0.03960936
117	0x3d744726	0.059638165
118	0xbdc2d674	-0.0951356
119	0xbc3c9660	-0.011510462
120	0xbd9036f0	-0.070417285
121	0xbd6cedab	-0.057843845
122	0xbb9e9655	-0.0048396983
123	0x3d8bbd93	0.06823268
124	0x3d76017a	0.060060002
125	0xbd3ea6be	-0.046545736
126	0xbca25ce7	-0.01981969
127	0xbd4154ab	-0.047199886

linear2.0.weight f4 [1, 128]
0	0xbf273e7b	-0.6532971
1	0x3f271b7d	0.6527632
2	0xbf0f4429	-0.5596338
3	0x3f2a2f32	0.66478264
4	0xbf037937	-0.51356834
5	0xbe8c57ae	-0.27410644
6	0xbed40c57	-0.41415665
7	0xbf0101a2	-0.50393116
8	0xbf0d7df1	-0.55270296
9	0x3f183302	0.5945283
10	0x3f1c6673	0.61093825
11	0x3ef79f4c	0.4836372
12	0x3f0a111d	0.5393236
13	0xbf16ca82	-0.5890275
14	0xbf3892a8	-0.7209878
15	0x3f35417b	0.7080304
16	0xbf01c3d1	-0.5068942
17	0xbedf052a	-0.43558627
18	0xbea2fe49	-0.3183463
19	0x3f178a09	0.59195
20	0x3ee9b10a	0.45642883
21	0xbf02fc85	-0.51166564
22	0xbf031e33	-0.51217955
23	0x3f1199f0	0.56875515
24	0x3f1b010a	0.6054846
25	0xbf38e94e	-0.72230995
26	0xbeef4ac1	-0.4673672
27	0x3f1efc3e	0.6210364
28	0x3f0dce14	0.55392575
29	0xbf311466	-0.6917175
30	0x3f40e160	0.75343895
31	0x3f1a8a70	0.6036749
32	0x3ec867dd	0.3914174
33	0x3f1c5ec5	0.61082107
34	0x3f4c1a6d	0.7972782
35	0x3f1a793a	0.6034123
36	0xbf2a704a	-0.6657759
37	0xbf255f8e	-0.6459893
38	0x3f3cb603	0.7371523
39	0x3f2cb9bd	0.67470914
40	0xbc72d84d	-0.014822078
41	0x3ef7cf26	0.4840023
42	0xbf29c69f	-0.66318697
43	0xbf115c89	-0.5678182
44	0x3f1086fb	0.56455964
45	0x3f04f1de	0.5193156
46	0xbf1c5738	-0.61070585
47	0xbf20d466	-0.62824094
48	0xbf02e586	-0.51131475
49	0xbed97301	-0.42470554
50	0x3f0f322c	0.5593593
51	0x3ef6f5be	0.4823436
52	0x3ef69728	0.48162198
53	0x3f0ea9b4	0.55727696
54	0x3f29b132	0.66286004
55	0x3f096854	0.5367482
56	0xbf2f1351	-0.6838885
57	0x3f1bfabc	0.60929465
58	0x3f29d106	0.6633457
59	0xbee01887	-0.43768713
60	0xbed51c34	-0.4162308
61	0x3ece81dc	0.4033345
62	0xbf250579	-0.64461476
63	0x3ef85087	0.48498937
64	0xbf0290a5	-0.5100196
65	0xbf11c391	-0.56939036
66	0xbf3065e9	-0.689055
67	0x3f11cb0b	0.56950444
68	0xbf2346ef	-0.6378011
69	0x3ec19f41	0.37816814
70	0xbf3a7602	-0.72836316
71	0x3eb0dfb0	0.3454566
72	0xbee1b993	-0.44086894
73	0xbf0ce3ef	-0.550353
74	0xbef1ccbb	-0.4722651
75	0x3f45b7d8	0.7723365
76	0x3eb48baf	0.3526282
77	0xbedc3bff	-0.43014523
78	0xbf15dde7	-0.5854172
79	0x3f1d70fd	0.6150053
80	0xbf0ade4c	-0.5424545
81	0x3f0ea2f7	0.55717415
82	0x3f0a5e3a	0.5405003
83	0xbf1956e3	-0.59898204
84	0x3f1fa4a4	0.62360597
85	0x3ef98047	0.4873068
86	0x3eda4844	0.4263326
87	0xbf468cbf	-0.7755851
88	0x3f2e7e6a	0.6816164
89	0xbecdc0c9	-0.40186146
90	0x3f1d339d	0.6140688
91	0xbf12ad3d	-0.5729559
92	0xbf1d3efd	-0.6142424
93	0xbefb0e84	-0.49034512
94	0x3f077dbe	0.5292624
95	0xbf1b6233	-0.60696715
96	0x3f2a6b4e	0.66569984
97	0xbef957e3	-0.48699865
98	0xbf2abbbf	-0.6669273
99	0xbf0cb49d	-0.54963094
100	0x3f0243f3	0.5088493
101	0xbf23e962	-0.6402799
102	0xbf1108bb	-0.56653947
103	0xbed76842	-0.4207173
104	0xbecdbb77	-0.40182087
105	0xbd81fcb6	-0.06347029
106	0xbef648b2	-0.48102337
107	0xbef214d0	-0.47281504
108	0x3ef23a0d	0.47309914
109	0x3f15f9e6	0.5858444
110	0x3f1f1cf9	0.62153584
111	0x3efac3ec	0.48977602
112	0x3f0bc478	0.5459666
113	0x3edbac94	0.42905104
114	0x3f31f11c	0.6950853
115	0x3f3e0dae	0.74239624
116	0xbf411d42	-0.7543527
117	0xbee0dba3	-0.4391757
118	0x3f38500c	0.7199714
119	0x3efcf04a	0.49402076
120	0x3f06d05d	0.5266169
121	0x3f199094	0.59986234
122	0xbf0bc53e	-0.5459784
123	0xbf1dbbdb	-0.6161477
124	0xbf47ff51	-0.78123957
125	0x3f11663b	0.56796616
126	0x3f31e768	0.6949372
127	0x3f1fed41	0.62471396

linear3.weight f4 [4, 128]
0	0xbccdf11f	-0.02513939
1	0x3d13602e	0.035980396
2	0x3d2b7a94	0.041864946
3	0xbb1bae70	-0.0023755096
4	0xbd2ec678	-0.042669743
5	0xbc08fa9a	-0.008360529
6	0x3d1806e6	0.037115954
7	0x3d5a9907	0.053368594
8	0x3c2a9d12	0.010413425
9	0x3c0dd72d	0.008657259
10	0x3ca298e8	0.019848302
11	0xbd174f17	-0.03694066
12	0xbd2188d4	-0.03943713
13	0x3c5bdee7	0.013419843
14	0x3c037eb0	0.00802581
15	0xbd6afa71	-0.057367746
16	0x3cfa0dbe	0.03052413
17	0x3d113572	0.03545136
18	0x3d2250ac	0.039627716
19	0x3cd7840d	0.026308084
20	0xbcf18f76	-0.029487353
21	0xbc53ef45	-0.012935464
22	0x3d04ed64	0.032452956
23	0xbcbcb4d3	-0.023035442
24	0x3d076f85	0.033065338
25	0xbcc84a84	-0.024449594
26	0xbc9befe1	-0.019035282
27	0x3d4927da	0.04911027
28	0x3d233013	0.03984077
29	0xbd40826a	-0.046999373
30	0x3cb43342	0.021997098
31	0xbcc767c5	-0.024341473
32	0x3d002834	0.03128834
33	0x3c7a0506	0.015259987
34	0x3c7c0eb1	0.015384362
35	0xbd79bd40	-0.0609715
36	0xbca7a69f	-0.020465193
37	0x3beacf14	0.007165799
38	0x3d176a1b	0.036966424
39	0x3b501d63	0.0031755797
40	0xbbbeeb0d	-0.00582636
41	0xbcc713ea	-0.024301488
42	0xbcf83542	-0.030298833
43	0x3c0fdff9	0.008781427
44	0xbd046470	-0.032322347
45	0x3cae4e77	0.02127765
46	0x3d3e9a14	0.04653366
47	0xbbc45b62	-0.005992339
48	0xbd4371e6	-0.047716044
49	0x3d43c59f	0.047795888
50	0xbcc7d4b2	-0.024393413
51	0xbd17a5e8	-0.037023455
52	0xbc9ef65a	-0.019404579
53	0x3c9cbbc7	0.019132508
54	0x3d8ac409	0.06775672
55	0xbc713dc3	-0.014724198
56	0xbd2c3293	-0.04204042
57	0xbd1ddc67	-0.03854027
58	0x3cdf05e2	0.027224485
59	0xbc640391	-0.013916866
60	0xbcd7cf8d	-0.026344085
61	0xbd2a5ec0	-0.041594267
62	0xbcca948c	-0.024729036
63	0xbc0c2b15	-0.008555193
64	0xbd6718c2	-0.056420095
65	0xbd024eb7	-0.03181335
66	0xbcbd79e5	-0.023129413
67	0xbd016a80	-0.031595707
68	0xbc96fc7b	-0.018430939
69	0xbbb02de8	-0.005376566
70	0xbd110029	-0.035400543
71	0xbd0f33ef	-0.034961637
72	0x3d2de36b	0.04245321
73	0x3b4de6c4	0.0031418065
74	0x3cafa412	0.02144054
75	0x3d12c770	0.03583473
76	0x3d031a91	0.032007758
77	0x3d63ef3a	0.055648066
78	0x3c34c99c	0.011034396
79	0xbb663324	-0.0035125697
80	0xbb689224	-0.0035487497
81	0x3c2e461f	0.010636835
82	0x3d1c2bcb	0.0381277
83	0xbd2478c4	-0.040154234
84	0xbd1022ae	-0.035189323
85	0xbd0458dd	-0.03231131
86	0xbd5f66ac	-0.054541275
87	0xbd3f77c4	-0.046745077
88	0xbcfbe16e	-0.030747142
89	0xbca2c6a6	-0.019870114
90	0x3cab6731	0.020923229
91	0xbd3baec2	-0.04582096
92	0x3c8e518e	0.017372873
93	0xbcbac59c	-0.022799306
94	0xbc11fe1f	-0.008910685
95	0x3d2e7ae3	0.042597663
96	0xbbe9e04a	-0.007137333
97	0x3c9939f8	0.0187044
98	0x3d509f89	0.050933395
99	0x3af31a3d	0.0018547248
100	0xbd6ade9f	-0.057341214
101	0x3ca74510	0.020418674
102	0xbd53f872	-0.051750608
103	0x3cffc052	0.031219635
104	0x3d073389	0.033008132
105	0x3c6202ab	0.013794581
106	0xbb9e1d4d	-0.0048252703
107	0xbd1e63c0	-0.038669348
108	0x3d3d5f23	0.046233308
109	0x3ca123d8	0.019670412
110	0x3cf95c3a	0.030439485
111	0xbd241532	-0.040059276
112	0x3d1bf749	0.038077626
113	0x3b30f75d	0.0027002909
114	0xbd46d91e	-0.048546903
115	0x3b55fe49	0.0032652786
116	0xbd0da112	-0.034577437
117	0x3d573dd8	0.052549213
118	0xbb8b8b51	-0.004258551
119	0x3c92f140	0.017937303
120	0x3c6ee74d	0.014581514
121	0x3c0a25d5	0.008431871
122	0x3d4fa183	0.05069114
123	0xbcc85114	-0.024452724
124	0xbc170b09	-0.00921894
125	0x3ce33694	0.027735986
126	0x3d7b1fdc	0.06130968
127	0x3c220736	0.0098894145
128	0x3c150136	0.009094527
129	0x3c9bf127	0.019035889
130	0x3c67731b	0.014126564
131	0xbd67cc8d	-0.05659156
132	0x3d0a4735	0.033759315
133	0x3d26c26e	0.040712766
134	0xbd3706a4	-0.044684067
135	0x3a0d4f64	0.0005390553
136	0x3c522ae3	0.012827608
137	0xbd7ccd0e	-0.061718993
138	0x3cd01801	0.025402071
139	0xbcb2d4bc	-0.021829955
140	0xbd15a611	-0.036535326
141	0xbd03b9ce	-0.03215962
142	0xbca1f95c	-0.019772224
143	0x3d4473c6	0.047961973
144	0x3c86d415	0.01645855
145	0xbd7bd56e	-0.06148284
146	0xbd16f8eb	-0.03685848
147	0xbc0f6a07	-0.008753306
148	0xbbb6097b	-0.0055553294
149	0xbd1a6cfb	-0.037701588
150	0x3d13e396	0.036105715
151	0x3c4d5f8f	0.01253499
152	0xbba20c9d	-0.0049453513
153	0xbd730b86	-0.05933716
154	0x3d272394	0.040805414
155	0x3d2253b4	0.039630607
156	0xbc4a93ca	-0.012364337
157	0xbc973bfd	-0.018461222
158	0xbd6d3cb0	-0.057919204
159	0x3cf4ed5a	0.029898334
160	0xbd40342e	-0.046924762
161	0x3c938010	0.0180054
162	0x3c916b6f	0.017751424
163	0x3d87707f	0.06613254
164	0x3d440f78	0.047866315
165	0x3d447122	0.047959454
166	0x3d130d96	0.03590163
167	0xbd21290b	-0.039345782
168	0x3b5c7583	0.0033639378
169	0x3c11b3be	0.0088929515
170	0x3d73f52e	0.059559993
171	0xbd779202	-0.06044198
172	0x3c76a342	0.015053572
173	0xbb0ea54b	-0.0021766003
174	0xbd5e10bb	-0.054215174
175	0xbc0d568f	-0.008626594
176	0x3d161501	0.036641125
177	0xbabf509e	-0.0014596169
178	0x3c3ee1bf	0.011650502
179	0x3c76e056	0.015068134
180	0x3d37910e	0.04481607
181	0x3c1a7b22	0.009428771
182	0xbd4d6450	-0.050144494
183	0xbca4e850	-0.020130306
184	0xbd51ecf5	-0.05125137
185	0xbc927eae	-0.017882671
186	0x3d5c058a	0.05371622
187	0xbd2352e4	-0.039873973
188	0xbd3bbb2c	-0.045832798
189	0x3d0d5fc5	0.03451516
190	0xbd60f606	-0.054922126
191	0x3cf366c2	0.029712085
192	0x3c440ca8	0.011965908
193	0xbcf12415	-0.02943615
194	0x3c50211b	0.012703205
195	0x3d486d9a	0.04893265
196	0xbc670af3	-0.014101732
197	0xbccac1ac	-0.024750553
198	0xbc88d237	-0.0167018
199	0xbc3f489d	-0.011675027
200	0xbca6d4c5	-0.020365128
201	0xbd0a5499	-0.033772085
202	0x3b0e2857	0.0021691525
203	0x3cbbbaa4	0.022916146
204	0xbce87875	-0.02837775
205	0x3bea2412	0.007145413
206	0x3d4a8286	0.049440883
207	0xbd3e2d4b	-0.046429913
208	0x3d36586a	0.044517912
209	0xbc0002fa	-0.00781321
210	0xbd00b6b5	-0.031424243
211	0x3d46371b	0.048392396
212	0xbcf37f3b	-0.029723754
213	0xbcbe74e8	-0.023249105
214	0x3ce905f8	0.028445229
215	0x3ca360f5	0.019943694
216	0x3d0be8b5	0.034157474
217	0xbb3fd31f	-0.0029270125
218	0xbd08c12f	-0.03338736
219	0x3d5b2864	0.053505316
220	0x3d0b2519	0.033970926
221	0xbc6925ae	-0.014230175
222	0xbb4eeb7e	-0.003157347
223	0xbd46de76	-0.048552
224	0xbc584e98	-0.013202332
225	0xbcab3323	-0.020898407
226	0x3c13ed1e	0.009028701
227	0x3c9c2425	0.019060204
228	0x3d2cf20b	0.042223018
229	0xbd5c63bd	-0.053806055
230	0x3d36f677	0.04466864
231	0x3b6f45fa	0.0036510215
232	0x3cc58a2b	0.024113735
233	0xbbbd503d	-0.0057773874
234	0xbb8b9da8	-0.0042607374
235	0x3cdfba1d	0.027310425
236	0x3d12dac1	0.03585315
237	0x3c5763cb	0.013146351
238	0x3d05164e	0.032491975
239	0xbd073e20	-0.03301823
240	0xbd57a7f9	-0.052650426
241	0x3d3bf707	0.04588988
242	0xbc52f78e	-0.012876404
243	0x3d787245	0.06065585
244	0x3d2da0dd	0.04238974
245	0x3b13a145	0.0022526544
246	0xbd566a94	-0.052347735
247	0x3c73ae63	0.01487312
248	0xbd75493f	-0.059884306
249	0xbc5f787b	-0.013639565
250	0xbd3e8ec2	-0.046522863
251	0x3cf2b062	0.029625122
252	0x3d26fa03	0.040765774
253	0xbc0750d4	-0.008259017
254	0xbd287b6a	-0.04113332
255	0x3ce74a8f	0.028233794

linear3.bias f4 [4]
0	0x3c0a8658	0.008454882
1	0xbcfa9554	-0.030588783
2	0xbd1230a5	-0.035690922
3	0x3e10e78d	0.1415083
